models/cnn_dl_noH_4.pt (torch, 29626 bytes, 6 tensors)

conv1.weight f4 [20, 20, 2, 5]
0.06369984 -0.038860243 -0.10442046 -0.051692866 0.07270591 -0.01385427 -0.051174596 -0.015843865
0.027925009 -0.03489676 0.1281497 0.06404204 -0.06815696 -0.10324532 -0.11368211 -0.030615306
0.1297488 0.12246361 -0.08386452 0.04196729 -0.10383789 0.010141075 -0.11896481 -0.09577954
0.04496867 -0.027258925 0.079175994 -0.10042206 -0.047633585 -0.057910755 0.076860696 -0.007605811
-0.029233793 0.23836482 -0.08710345 0.0808608 0.06470651 0.05557165 0.16008355 0.10145182
0.022502415 -0.07025052 0.05794579 0.03258971 -0.21326387 0.070449635 -0.035340596 -0.14559864
-0.012261828 0.15542789 -0.2375124 -0.036108423 0.06862686 -0.07076442 -0.06648068 0.217497
0.013120568 -0.011029774 0.050818387 0.015397338 0.0012831107 0.107467115 -0.08765293 0.09045402
-0.03999713 0.086629555 -0.104109585 0.051204022 0.06517527 0.08384544 0.1458255 0.094790936
-0.02405677 0.03517803 -0.16174687 0.011283422 0.10160445 -0.011716975 0.10881974 -0.10846241
-0.0124934055 0.026345609 -0.14551164 0.14133392 -0.16012956 0.10187052 -0.06956476 -0.009626594
0.0996905 0.12721449 -0.15286468 -0.07796223 0.16142343 -0.027909761 0.07102916 -0.07650388
0.1829931 0.061853763 -0.17940906 -0.0064631007 -0.0075060567 -0.02839001 0.106270365 0.03861104
-0.21248454 -0.04327084 -0.03311071 -0.106031545 -0.134628 0.08544734 0.031206802 0.12813798
0.058033023 0.05283215 -0.012267623 -0.03235559 -0.061580285 -0.20604208 0.14278099 0.1283211
0.048167042 0.12684932 -0.110640325 0.048546664 0.039198253 0.113506675 0.08219044 -0.08455193
-0.15646678 -0.06525211 0.15720141 -0.024717947 -0.23463738 -0.00025785065 -0.24180278 0.17077845
0.06953694 0.027286755 -0.030778136 -0.13814451 -0.31379646 0.20260464 0.18248144 0.06735867
-0.15923017 -0.11492533 0.066827424 0.23363577 0.25306073 0.031314332 -0.049647026 -0.12119769
-0.009957308 -0.22657031 0.07370676 -0.055297434 -0.043972082 0.1316698 0.024209615 -0.054426614
-0.10206455 -0.08930435 0.062190123 -0.13840316 0.13359898 -0.009868796 -0.07550057 0.0020578874
-0.19995986 0.07449154 -0.043080136 0.006628201 0.03862494 0.008694097 -0.15833367 0.06696183
0.032251038 -0.001948891 -0.06835076 0.09983419 0.112074606 0.015212024 -0.11538814 0.11572723
0.0023653877 -0.09424032 0.16068076 0.0009895345 -0.051603448 -0.076884486 0.11705026 0.055438336
0.06562138 -0.12458973 -0.013082134 0.00022630673 0.053820025 -0.054712586 0.10652214 0.013226395
-0.03810232 -0.047955733 0.028240414 0.12270238 0.088227354 -0.078842916 0.13722773 0.19217637
-0.02766498 -0.018437436 -0.16250144 -0.011245389 0.094431564 0.016316874 0.17991371 -0.0032668547
-0.03819763 0.05236444 -0.19900312 0.12280477 0.16569497 -0.07870356 0.10402332 -0.16132838
-0.08955591 -0.0023278494 -0.14755628 0.09332085 -0.12095229 0.05315879 -0.0030830663 0.066015944
0.12041235 -0.1279918 -0.15650922 -0.0865391 0.011725038 0.00066519494 -0.09134396 -0.14542039
-0.005184208 -0.18094587 0.11024499 0.13183303 0.004510991 -0.1766267 0.0353054 -0.011083312
-0.045879897 -0.11455926 0.07196067 -0.0029189952 0.08320499 -0.026730979 0.1290026 -0.05000706
00000000: 1075 823d eb2b 1fbd 65da d5bd e6bb 53bd
00000010: d6e6 943d 05fd 62bc 749c 51bd feca 81bc
00000020: fdc2 e43c e8ef 0ebd ad39 033e 7928 833d
00000030: e095 8bbd 4872 d3bd 2bd2 e8bd f3cc fabc
00000040: dfdc 043e 33ce fa3d 29c1 abbd e5e5 2b3d
00000050: f6a8 d4bd c026 263c d3a3 f3bd 1028 c4bd
00000060: 1131 383d 1c4e dfbc 0627 a23d 15aa cdbd
00000070: 6f1b 43bd d433 6dbd 2469 9d3d 2b3a f9bb
00000080: b57b efbc e815 743e 4b63 b2bd 599a a53d
00000090: d984 843d 199f 633d f1ec 233e f9c5 cf3d
000000a0: fc56 b83c 81df 8fbd 9158 6d3d ca7c 053d
000000b0: d861 5abe e647 903d 4dc1 10bd cf17 15be
000000c0: d6e5 48bc 7d28 1f3e 7336 73be 6de6 13bd
000000d0: 3d8c 8c3d f0ec 90bd 0627 88bd 89b7 5e3e
000000e0: a7f7 563c 3ab6 34bc f126 503d 1e45 7c3c
000000f0: 0d2e a83a b817 dc3d 6183 b3bd f53f b93d
00000100: 08d4 23bd d66a b13d 6837 d5bd 4fbb 513d
00000110: 9d7a 853d 28b7 ab3d 4853 153e c021 c23d
00000120: b412 c5bc d716 103d f9a0 25be 1ade 383c
00000130: fe15 d03d 8ef8 3fbc e2dc de3d 8a21 debd
00000140: 24b1 4cbc bfd2 d73c 0101 15be d7b9 103e
00000150: 01f9 23be 7ea1 d03d f877 8ebd ddb8 1dbc
00000160: 882a cc3d 8444 023e 8f88 1cbe a9aa 9fbd
00000170: 2f4c 253e 03a3 e4bc bc77 913d 11ae 9cbd
00000180: 8b62 3b3e 5f5a 7d3d 02b7 37be 6bc8 d3bb
00000190: 5ef5 f5bb 2b92 e8bc 47a4 d93d 9c26 1e3d
000001a0: 8c95 59be c43c 31bd 199f 07bd 1127 d9bd
000001b0: ecdb 09be 04ff ae3d 68a5 ff3c 9a36 033e
000001c0: 09b4 6d3d 8666 583d 24fe 48bc 4c87 04bd
000001d0: 9c3b 7cbd b2fc 52be 2e35 123e 9b66 033e
000001e0: ce4a 453d cae4 013e 6597 e2bd ded8 463d
000001f0: 598e 203d 3076 e83d 7653 a83d 9029 adbd
00000200: d438 20be e6a2 85bd 68f9 203e 4b7d cabc
00000210: c844 70be 2130 87b9 269b 77be 8ce0 2e3e
00000220: 6269 8e3d 7988 df3c 6e22 fcbc c175 0dbe
00000230: eea9 a0be 9777 4f3e 6adc 3a3e 58f3 893d
00000240: 3c0d 23be f95d ebbd d1dc 883d 373e 6f3e
00000250: 2d91 813e 7543 003d ae5a 4bbd 7f36 f8bd
00000260: fa23 23bc 0c02 68be 92f3 963d 907f 62bd
00000270: 121c 34bd 73d4 063e 3e53 c63c 71ee 5ebd
00000280: 3807 d1bd 33e5 b6bd 12bb 7e3d 8fb9 0dbe
00000290: 2cce 083e bbb0 21bc 0ba0 9abd 9fdd 063b
000002a0: 47c2 4cbe 058f 983d cc74 30bd 6131 d93b
000002b0: 2f35 1e3d b071 0e3c 3922 22be 4923 893d
000002c0: aa19 043d ee71 ffba 7cfb 8bbd de75 cc3d
000002d0: 5f87 e53d da3b 793c 9e50 ecbd 6602 ed3d
000002e0: 9f04 1b3b 1201 c1bd 7f89 243e 45b3 813a
000002f0: 235e 53bd 9d75 9dbd 0cb8 ef3d 4f13 633d
00000300: 8164 863d e628 ffbd 7256 56bc c04c 6d39
00000310: 6372 5c3d 4e1a 60bd 4828 da3d 85b3 583c
00000320: 2e11 1cbd 3b6d 44bd 7158 e73c 634b fb3d
00000330: 8bb0 b43d 6578 a1bd 6d85 0c3e e2c9 443e
00000340: aba1 e2bc 1b0a 97bc c766 26be 943e 38bc
00000350: 5665 c13d f7aa 853c 4d3b 383e ba18 56bb
00000360: 1e75 1cbd 187c 563d 79c7 4bbe 1181 fb3d
00000370: f1ab 293e 552f a1bd 2e0a d53d 4433 25be
00000380: 1769 b7bd d58e 18bb fe18 17be 001f bf3d
00000390: d6b5 f7bd 08bd 593d 450d 4abb 5e33 873d
000003a0: c09a f63d 4810 03be f443 20be 693b b1bd
000003b0: 601a 403c 7a60 2e3a 8b12 bbbd 15e9 14be
000003c0: 4ae0 a9bb e049 39be 20c8 e13d 3dff 063e
000003d0: efd0 933b a1dd 34be 659c 103d c896 35bc
000003e0: 8fec 3bbd 0c9e eabd 1e60 933d 9d4c 3fbb
000003f0: 6167 aa3d edfa dabc 4219 043e 34d4 4cbd

conv1.bias f4 [20]
0.025542697 -0.04676237 0.074715905 -0.01840846 -0.038780767 -0.011689495 0.06967664 0.005150027
-0.040336266 -0.061378907 0.009474377 0.048676208 0.02378605 0.007771114 -0.03701198 0.028493723
0.06879084 -0.019179614 -0.04195316 0.06076015
00000000: eb3e d13c e689 3fbd a704 993d 57cd 96bc
00000010: 95d8 1ebd 4c85 3fbc a0b2 8e3d 8fc1 a83b
00000020: a437 25bd 7368 7bbd 6b3a 1b3c b460 473d
00000030: f6da c23c d4a4 fe3b e099 17bd ab6b e93c
00000040: 36e2 8c3d 911e 9dbc 14d7 2bbd a3df 783d

conv2.weight f4 [20, 20, 2, 3]
-0.028629918 -0.08112483 0.13021293 -0.06963111 -0.015510426 -0.12149294 -0.07943589 -0.014238536
0.08177587 0.018623045 0.12731859 0.066375434 -0.1326781 0.11473897 0.11550821 -0.03902744
0.04282066 0.04248677 -0.017283095 0.17607744 -0.11197504 0.08630805 0.0013261045 0.10655423
-0.076692894 0.12385098 0.117361635 0.13416564 0.09958029 0.049964514 -0.089928664 0.07753119
-0.00584343 -0.16049066 0.10239673 -0.037459683 -0.050297618 0.012424644 0.09090774 -0.09958813
0.038050868 0.046236444 0.027371347 -0.02038278 0.06836223 -0.0149468025 -0.032256085 0.1225144
-0.07904085 -0.12404012 0.0695786 0.022830365 0.13186525 0.106170446 0.07599186 -0.07816673
0.01970561 -0.025657488 0.07775959 0.010808398 0.07006387 0.1236229 0.080354944 0.07612662
0.024526304 -0.08170817 0.004111112 0.078934945 -0.037424948 -0.19647636 -0.04038321 0.09886267
-0.019904865 -0.030713147 0.12266892 -0.0805699 -0.028156832 0.15708864 0.009987671 0.018324155
0.08245693 -0.019048177 0.1199339 -0.019344037 0.082358845 0.22025299 -0.049191616 -0.14961356
0.0153302215 0.07151076 0.027399013 0.056201816 0.008644697 0.039241616 0.05543119 -0.06521902
0.026611567 0.061037585 0.11536402 -0.023025429 0.0052555297 0.08705317 -0.040723205 0.010998082
0.045539644 -0.047822718 0.09302636 -0.021633582 -0.12007903 0.08696707 0.04888287 0.08215019
0.06976373 0.06718269 0.037230298 0.0044430024 0.12195557 -0.05641732 -0.0070448057 0.0483416
0.03046887 0.08107897 0.031239694 0.27091205 -0.017140193 0.14520246 -0.048039947 0.014869861
-0.105276875 0.07312704 -0.069385484 -0.05139772 0.09436541 -0.059289232 0.044752054 -0.01215459
0.084105946 -0.013152126 -0.10964723 -0.11095122 -0.0749751 0.04668976 -0.051775336 -0.055497926
0.042104587 0.10819305 -0.21541063 0.06575991 0.018389342 -0.10479753 0.2571498 -0.1357978
-0.19033554 0.06663866 0.019001212 -0.11492506 -0.008047734 0.11450612 -0.18145101 0.048688713
0.06623034 0.07600664 -0.05341218 -0.04878113 0.021192158 -0.11249438 -0.13341276 -0.1573166
-0.00039341568 0.22278889 0.21127515 -0.024041262 -0.019407293 -0.13402197 -0.0059240474 0.11354745
0.03813226 0.07956082 0.006223809 -0.050897583 0.2579908 0.095302515 0.006221181 0.03421839
-0.0157775 -0.15631534 0.074384324 0.11650939 0.15556754 -0.03531935 -0.08942977 -0.16364944
-0.093159534 0.174471 -0.16696398 -0.05593176 -0.015762798 -0.016454466 0.067048185 0.1063861
-0.066324316 0.19022869 -0.11165659 0.015525181 0.11397321 -0.12657888 -0.08080115 0.19797157
0.14814858 -0.15299596 0.116557054 0.19106337 -0.026150398 -0.021871338 -0.028684204 0.04678588
0.12096355 0.015077113 0.14042276 0.11484153 0.090841465 -0.23588051 0.027345203 -0.035444476
-0.084362134 0.098298036 -0.03996127 -0.19635871 0.033115506 -0.10439547 -0.048109163 -0.079917565
-0.10717726 -0.15746343 0.103959024 0.026134802 0.16025071 0.062946364 -0.014380611 -0.020013934
0.10328661 -0.049121007 -0.06369448 0.10068996 0.1481533 0.070662685 0.09135427 -0.09117323
-0.07845389 -0.02114361 -0.0052337153 -0.15689673 0.06441948 -0.0289763 -0.07678136 0.10539032
00000000: 4a89 eabc c624 a6bd 8a56 053e c19a 8ebd
00000010: 711f 7ebc 4ad1 f8bd 49af a2bd c048 69bc
00000020: 1b7a a73d 5b8f 983c ce5f 023e d8ef 873d
00000030: c5dc 07be 44fc ea3d 928f ec3d 3ddb 1fbd
00000040: b764 2f3d 9b06 2e3d 4795 8dbc a54d 343e
00000050: 2b53 e5bd 46c2 b03d afd0 ad3a 1b39 da3d
00000060: 2a11 9dbd 95a5 fd3d 4c5b f03d b862 093e
00000070: c0f0 cb3d 97a7 4c3d 852c b8bd acc8 9e3d
00000080: 3e7a bfbb aa57 24be 60b5 d13d 536f 19bd
00000090: e004 4ebd bc90 4b3c d62d ba3d ddf4 cbbd
000000a0: 3adb 1b3d 6d62 3d3d e039 e03c caf9 a6bc
000000b0: 7f01 8c3d 6fe3 74bc f51e 04bd d4e8 fa3d
000000c0: 2be0 a1bd bf08 febd 3a7f 8e3d bf06 bb3c
000000d0: af07 073e e46f d93d 9fa1 9b3d e115 a0bd
000000e0: a96d a13c a72f d2bc 6c40 9f3d b515 313c
000000f0: a57d 8f3d 012e fd3d 2291 a43d 46e8 9b3d
00000100: 63eb c83c 9d56 a7bd 82b6 863b a5a8 a13d
00000110: e74a 19bd 1931 49be dd68 25bd 8378 ca3d
00000120: 870f a3bc 239a fbbc d839 fb3d d501 a5bd
00000130: 28a9 e6bc d8db 203e 54a3 233c 8a1c 963c
00000140: 2edf a83d ec0a 9cbc e89f f53d 6377 9ebc
00000150: c1ab a83d 008a 613e 267d 49bd 4c34 19be
00000160: 9c2b 7b3c 3c74 923d e573 e03c e033 663d
00000170: 7da2 0d3c d1bb 203d d10b 633d 8d91 85bd
00000180: 8000 da3c 8c02 7a3d f943 ec3d d39f bcbc
00000190: 9436 ac3b ef48 b23d 60cd 26bd 4d31 343c
000001a0: c787 3a3d c1e1 43bd 9b84 be3d e938 b1bc
000001b0: ffeb f5bd cb1b b23d 6739 483d 5c3e a83d
000001c0: 49e0 8e3d 1497 893d cc7e 183d 9b96 913b
000001d0: d8c3 f93d d915 67bd 1dd8 e6bb d701 463d
000001e0: da99 f93c bb0c a63d 63ea ff3c fcb4 8a3e
000001f0: 9769 8cbc f4af 143e 89c5 44bd b8a0 733c
00000200: 679b d7bd a1c3 953d fa19 8ebd 6a86 52bd
00000210: a742 c13d 44d9 72bd ee4d 373d 0c24 47bc
00000220: bd3f ac3d 047c 57bc ba8e e0bd 653a e3bd
00000230: 8c8c 99bd c33d 3f3d 6012 54bd cb51 63bd
00000240: dc75 2c3d 5194 dd3d 9b94 5cbe 22ad 863d
00000250: 3fa5 963c 16a0 d6bd 23a9 833e 940e 0bbe
00000260: 52e7 42be da79 883d 6ea8 9b3c d45d ebbd
00000270: a5da 03bc 2f82 ea3d 4bce 39be d16d 473d
00000280: c6a3 873d 5fa9 9b3d bbc6 5abd b9ce 47bd
00000290: 2d9b ad3c 7463 e6bd 5b9d 08be 9a17 21be
000002a0: 5c43 ceb9 c522 643e 8358 583e 2ef2 c4bc
000002b0: 0bfc 9ebc 0e3d 09be 831e c2bb 918b e83d
000002c0: 9330 1c3d c8f0 a23d 18f1 cb3b fc79 50bd
000002d0: 5f17 843e f72d c33d 0cdb cb3b 9528 0c3d
000002e0: d13f 81bc 2111 20be cf56 983d 7a9c ee3d
000002f0: 194d 1f3e 06ab 10bd f526 b7bd b893 27be
00000300: 6dca bebd 87a8 323e 9bf8 2abe b418 65bd
00000310: fc20 81bc 84cb 86bc 8f50 893d f5e0 d93d
00000320: 0bd5 87bd 4fcb 423e 36ac e4bd 545d 7e3c
00000330: c96a e93d e59d 01be 137b a5bd 0fb9 4a3e
00000340: 43b4 173e f9aa 1cbe 77b5 ee3d 1ea6 433e
00000350: 5c39 d6bc 852b b3bc 23fb eabc 8da2 3f3d
00000360: bdbb f73d ff05 773c fcca 0f3e 0932 eb3d
00000370: 170b ba3d a98a 71be 0c03 e03c 3a2e 11bd
00000380: 0ec6 acbd 7b50 c93d 6eae 23bd 4212 49be
00000390: 20a4 073d 4bcd d5bd 1d0e 45bd d2ab a3bd
000003a0: c07f dbbd 183e 21be 78e8 d43d a718 d63c
000003b0: c318 243e 06ea 803d a79c 6bbc 43f4 a3bc
000003c0: ee87 d33d 1c33 49bd 4072 82bd 8a36 ce3d
000003d0: 80b5 173e 99b7 903d f317 bb3d 08b9 babd
000003e0: 6fac a0bd 5d35 adbc 967f abbb 89a9 20be
000003f0: 5cee 833d b55f edbc 8c3f 9dbd e1d6 d73d

conv2.bias f4 [20]
-0.015069518 0.0052118353 0.00017239203 0.0772576 0.086678416 -0.014948096 0.022662051 0.06870847
0.015346377 0.12342662 -0.07038819 -0.0637442 -0.14095192 -0.01872422 0.009737278 -0.092305325
-0.03198233 -0.008532549 0.035779495 -0.07295104
00000000: 24e6 76bc 0bc8 aa3b 22c4 3439 3c39 9e3d
00000010: 7484 b13d dce8 74bc c4a5 b93c 07b7 8c3d
00000020: 5f6f 7b3c 19c7 fc3d af27 90bd 528c 82bd
00000030: b355 10be 8963 99bc 1b89 1f3c 930a bdbd
00000040: e7ff 02bd 1bcc 0bbc 858d 123d 5b67 95bd

fc1.weight f4 [2, 151]
0.1382748 -0.042255983 0.054002002 -0.00086800894 0.1974959 0.034118738 -0.1253545 -0.033226043
0.21639474 0.055980194 -0.10891086 -0.0022398552 0.20551524 0.14498453 0.00395642 -0.056308962
-0.0061858376 0.19104598 0.11017438 -0.059969224 0.10098421 0.008622363 -0.05334593 0.034521848
-0.0051420336 0.19175975 0.06786734 -0.019882876 -0.102297366 0.10614534 0.013803565 -0.06767221
-0.09664987 0.06050007 0.05697189 0.068463124 0.044318195 0.08646528 -0.013218555 0.013535556
-0.0214437 -0.07409223 0.0381807 0.03887347 0.15368138 -0.07299916 -0.11778572 0.118301414
-0.05663184 0.14577007 -0.06484286 -0.07472833 0.13261949 0.0967979 -0.0046719215 -0.06588579
0.01718485 0.06457264 0.080416895 -0.024315482 -0.04046169 -0.03968419 0.063843474 0.014477575
-0.013628405 -0.063998416 0.05456449 -0.06858511 -0.032307234 -0.21055743 0.022581577 0.0022189992
0.08698254 0.017791186 -0.008130948 -0.0713894 -0.002859282 -0.054921377 0.12553534 0.114341326
-0.06439437 0.28933546 0.08191312 0.030358637 0.030205723 -0.12212008 -0.014367234 -0.10187011
-0.16771425 -0.2950204 0.0090022 -0.10177219 0.28447124 0.27497438 0.08174425 -0.10372284
0.5447811 0.08053571 -0.17085695 -0.09412323 0.018091867 0.27894124 -0.08768829 -0.095193505
0.4685983 0.10067722 -0.08405396 -0.16816448 -0.15519956 0.32617548 -0.23516296 0.2142914
0.044091854 -0.06386404 -0.20388903 -0.062332723 0.057198677 -0.082196794 0.23103517 -0.09723183
-0.082004935 0.045765273 -0.0049640373 -0.079786584 -0.00314178 0.15096128 0.4850651 -0.16624467
0.14516266 0.2085986 -0.12535542 0.16206561 0.009516424 0.21454309 0.13792686 0.14392285
0.19728394 0.17057863 -0.04029644 -0.07339021 0.03457335 0.2874807 -0.0766908 -0.06546615
-0.00945043 0.038501818 0.09332115 -0.044614516 0.14917578 0.028004494 -0.20667855 0.020533478
0.07115022 -0.04407554 0.013684193 -0.20739006 -0.0118394885 0.13513638 0.01753216 -0.21310556
-0.1017579 0.09536401 -0.042891048 -0.11464553 -0.072138555 -0.009081524 0.0034683957 0.051553138
-0.22141454 0.018157631 -0.04823374 -0.025798786 -0.050848827 0.024739519 0.010740841 0.050949372
-0.1722431 -0.076978 -0.00731674 0.041461524 -0.19734015 -0.098671764 -0.059333835 0.175614
0.03285572 -0.0090849735 -0.15695186 -0.032335166 -0.19335528 0.03751006 0.0123033635 0.06587789
0.03991916 -0.018549273 0.07997094 -0.10345993 0.19187889 0.07751593 -0.03594244 0.14825764
-0.054538295 0.01994434 0.07912071 -0.15535644 -0.15612094 0.026476882 -0.044179752 -0.08644349
-0.12554216 -0.08502637 0.074747235 0.055439867 -0.09443635 -0.017864369 -0.059277225 0.05313762
0.031129217 -0.059918467 -0.06537436 0.016392088 0.15979868 -0.10796155 -0.07583074 -0.105309136
0.08473541 0.04367844 -0.04481073 0.10590012 0.098785885 -0.037365425 -0.014663066 0.0506892
-0.16977821 -0.028523229 0.05319125 0.111187086 0.24894455 0.023952078 0.19926289 0.04914319
0.2501358 -0.05595994 0.027339978 -0.20963632 -0.199003 -0.09480503 0.08207038 -0.57870036
-0.1427222 0.03459158 0.08807239 -0.10132802 -0.3886803 -0.0048905774 -0.006506583 -0.3880704
00000000: e997 0d3e 9c14 2dbd 3431 5d3d 188b 63ba
00000010: 5d3c 4a3e 17c0 0b3d ee5c 00be 0818 08bd
00000020: 9596 5d3e 7d4b 653d a80c dfbd 89ca 12bb
00000030: 9672 523e d376 143e dba4 813b 3aa4 66bd
00000040: 91b2 cabb 8fa1 433e 1ba3 e13d 4aa2 75bd
00000050: cfd0 ce3d d044 0d3c 4381 5abd c866 0d3d
00000060: 817e a8bb ab5c 443e 08fe 8a3d 6ae1 a2bc
00000070: 4881 d1bd ba62 d93d 5928 623c ba97 8abd
00000080: 5ef0 c5bd ecce 773d 5b5b 693d 6536 8c3d
00000090: ff86 353d b514 b13d a392 58bc 3dc4 5d3c
000000a0: b3aa afbc abbd 97bd 5e63 1c3d ca39 1f3d
000000b0: a75e 1d3e 9580 95bd a439 f1bd 0348 f23d
000000c0: caf6 67bd c044 153e 55cc 84bd 2b0b 99bd
000000d0: 67cd 073e fa3d c63d eb16 99bb 21ef 86bd
000000e0: 3ec7 8c3c a93e 843d 9db1 a43d 4331 c7bc
000000f0: 28bb 25bd e48b 22bd 5ec0 823d 5a33 6d3c
00000100: ac49 5fbc 9a11 83bd 047f 5f3d 5a76 8cbd
00000110: 9754 04bd 5e9c 57be 00fd b83c a16c 113b
00000120: e723 b23d d2be 913c ab37 05bc 9b34 92bd
00000130: cb62 3bbb 3df5 60bd 568c 003e c92b ea3d
00000140: 32e1 83bd c723 943e 11c2 a73d adb2 f83c
00000150: fe71 f73c 181a fabd 8c64 6bbc 47a1 d0bd
00000160: 49bd 2bbe ea0c 97be f77d 133c f06d d0bd
00000170: 37a6 913e 71c9 8c3e 8869 a73d a46c d4bd
00000180: c676 0b3f e8ef a43d 20f5 2ebe aec3 c0bd
00000190: 6535 943c 63d1 8e3e eb95 b3bd d0f4 c2bd
000001a0: 1eec ef3e dc2f ce3d 7c24 acbd 4f33 2cbe
000001b0: a2ec 1ebe 7900 a73e 8fce 70be 346f 5b3e
000001c0: a999 343d 26cb 82bd 49c8 50be 9950 7fbd
000001d0: 2949 6a3d cb56 a8bd 7c94 6c3e 7b21 c7bd
000001e0: 34f2 a7bd 5e74 3b3d 5da9 a2bb 2667 a3bd
000001f0: 52e6 4dbb 9895 1a3e 745a f83e 0b3c 2abe
00000200: 85a5 143e df9a 553e 2c5d 00be 87f4 253e
00000210: c6ea 1b3c 2fb1 5b3e b33c 0d3e 8360 133e
00000220: cd04 4a3e 2aac 2e3e e10d 25bd 9b4d 96bd
00000230: c99c 0d3d ac30 933e 1110 9dbd 1e13 86bd
00000240: fad5 1abc 15b4 1d3d 291f bf3d b6bd 36bd
00000250: 89c1 183e ae69 e53c 8ba3 53be d335 a83c
00000260: 35b7 913d 8e88 34bd aa33 603c 0f5e 54be
00000270: 6afa 41bc 3161 0a3e 9b9f 8f3c 5838 5abe
00000280: 7266 d0bd 354e c33d 86ae 2fbd 47cb eabd
00000290: 61bd 93bd acca 14bc 064e 633b 6229 533d
000002a0: 7eba 62be 50bf 943c be90 45bd fa57 d3bc
000002b0: dc46 50bd 88aa ca3c 5afa 2f3c 4ab0 503d
000002c0: 7f60 30be a4a6 9dbd 44c1 efbb 8fd3 293d
000002d0: 8913 4abe 6c14 cabd 0908 73bd 28d4 333e
000002e0: b893 063d 24d9 14bc fdb7 20be e171 04bd
000002f0: edfe 45be 26a4 193d 0c94 493c fdea 863d
00000300: 4682 233d a5f4 97bc cec7 a33d cde2 d3bd
00000310: e67b 443e acc0 9e3d 6138 13bd dad0 173e
00000320: 8c63 5fbd 5062 a33c 0a0a a23d c215 1fbe
00000330: 2bde 1fbe 0ce6 d83c d4f5 34bd 4909 b1bd
00000340: 208e 00be 4e22 aebd 1415 993d ea14 633d
00000350: d867 c1bd 4c58 92bc adcc 72bd d5a6 593d
00000360: b302 ff3c 116d 75bd fee2 85bd b348 863c
00000370: 44a2 233e f21a ddbd 264d 9bbd 51ac d7bd
00000380: c289 ad3d 2ae8 323d 758b 37bd 2ae2 d83d
00000390: 4150 ca3d 7d0c 19bd 5b3d 70bc 7b9f 4f3d
000003a0: 57da 2dbe 8ca9 e9bc 11df 593d 0eb6 e33d
000003b0: 52eb 7e3e 2637 c43c 920b 4c3e 5f4a 493d
000003c0: cd11 803e 4036 65bd 17f8 df3c e7aa 56be
000003d0: 71c7 4bbe 2429 c2bd 8414 a83d b525 14bf
000003e0: c525 12be e7af 0d3d 4c5f b43d 1185 cfbd
000003f0: 1b01 c7be 2341 a0bb 2d35 d5bb 2ab1 c6be

fc1.bias f4 [2]
-0.033743 0.011758434
00000000: 1a36 0abd 72a6 403c
