models/cnn_dl_noH_4.pt (torch, 29626 bytes, 6 tensors)

conv1.weight f4 [20, 20, 2, 5]
0.04221823 -0.09151375 0.15989716 0.067966476 -0.04351053 -0.024267746 -0.03534508 0.10421763
-0.09869089 -0.06713528 -0.14932127 -0.03141924 0.015564351 0.06350754 -0.0592845 -0.02102339
0.107337214 0.0093693575 0.08773043 0.18739077 -0.2030827 0.08145656 -0.0024918327 -0.052302334
-0.14841837 0.023137018 0.038278136 0.024098055 -0.029679965 -0.040749263 0.10189267 -0.17581534
0.015474462 0.127862 0.052943405 -0.0539827 0.016830951 0.11181101 -0.004362425 -0.103392325
-0.029456746 -0.04606425 -0.05412928 -0.10347292 -0.031488158 -0.09756487 0.044052783 0.12779579
0.1017569 -0.048974592 -0.078522824 -0.08748592 -0.144839 7.310105e-05 -0.08587524 0.070646994
0.0006091262 0.080944315 0.011344561 0.07429589 -0.0016095071 0.05423414 -0.13846982 -0.029436542
0.13573882 -0.027401976 -0.28468037 -0.0030207387 0.23614055 -0.07481835 0.10462401 -0.15300865
0.031639736 -0.01582533 -0.027832478 0.06129197 -0.15331586 -0.040834215 0.07611536 -0.009839345
-0.09990917 -0.03360083 0.06044762 0.09674409 0.03551851 -0.06328718 -0.067504235 0.052573405
-0.0033967893 0.1151501 0.04900968 0.102299206 -0.04322129 0.047330648 0.003951015 0.0019683766
0.003617204 0.10740834 0.07106493 -0.15167977 0.10935182 -0.018896116 -0.039133962 0.004726694
0.09359046 0.014835443 -0.011395898 -0.022527324 -0.023046263 0.099098355 -0.0012851598 -0.006882028
-0.19921741 -0.16943036 -0.034947503 -0.18261713 0.07668536 -0.06358113 -0.09626552 -0.09262019
-0.18241902 -0.10665891 0.21613714 -0.15507653 -0.081634365 0.19471699 -0.11135368 0.0638391
-0.099622235 0.13691263 -0.10131223 0.006652537 0.0053966534 0.18101335 0.018160168 -0.014801177
-0.05734546 -0.12584783 0.26476812 -0.009498768 0.16698594 0.18382065 -0.1622189 -0.08817614
-0.14837182 0.004569927 0.12108768 -0.3958168 0.16045423 -0.10318187 -0.23278508 0.041522354
0.02680973 -0.13677005 -0.012635367 -0.030360905 0.07653993 0.17148519 -0.020126237 -0.015370487
-0.011570635 -0.18516679 0.16424084 -0.10585673 0.093604855 0.022182073 -0.1100351 0.102365606
0.07904427 -0.08079301 -0.17820045 0.07676489 -0.0012536915 0.07186233 0.123591624 0.014526699
0.06532324 -0.1224405 -0.08056103 -0.03924228 0.12391224 0.03119955 0.055839013 0.021125417
0.015150482 -0.041676678 0.05212562 0.082418896 -0.062408607 -0.030646818 -0.3709286 0.12627907
-0.012635325 0.14961432 0.041473407 -0.1588554 0.029036777 -0.052003663 -0.025162358 0.0993993
0.047592603 -0.16251865 -0.021028774 0.035158955 -0.004226937 -0.15252925 -0.11946366 -0.00044897094
0.05072317 0.060159 0.07990727 -0.17518523 0.14300485 0.09485076 0.0017827328 -0.14312457
-0.11443976 0.05939636 0.023929177 -0.07030481 -0.1561173 0.0877769 0.021059506 0.006732327
-0.05048601 -0.025916537 0.05569001 0.013226234 -0.10327392 -0.16529076 -0.052850433 0.09233378
0.0030429994 0.013112598 0.20564377 -0.022223774 -0.098595664 0.058158115 -0.24171701 -0.1312437
0.0666292 -0.11272304 0.04762282 0.063010916 -0.14190106 0.057233807 -0.01092574 -0.13330841
0.0021298013 0.10062409 0.12960376 0.11388937 -0.0110248225 0.10039484 -0.16899267 -0.2209885
00000000: 06ed 2c3d 906b bbbd 15bc 233e 0232 8b3d
00000010: 1938 32bd 27cd c6bc 01c6 10bd 0e70 d53d
00000020: 731e cabd 397e 89bd ade7 18be 76b1 00bd
00000030: 9f01 7f3c 3e10 823d 4ed4 72bd 3f39 acbc
00000040: 9dd3 db3d ef81 193c 03ac b33d 5ee3 3f3e
00000050: e9f4 4fbe b2d2 a63d 044e 23bb f93a 56bd
00000060: fcfa 17be d889 bd3c 89c9 1c3d 4969 c53c
00000070: 6623 f3bc b3e8 26bd 1bad d03d f008 34be
00000080: 9988 7d3c 42ee 023e 2fdb 583d f71c 5dbd
00000090: 10e1 893c 2cfd e43d acf2 8ebb 5bbf d3bd
000000a0: 464f f1bc dead 3cbd aab6 5dbd 9ce9 d3bd
000000b0: baf9 00bd 17d0 c7bd b170 343d e6dc 023e
000000c0: ec65 d03d 9599 48bd 93d0 a0bd d12b b3bd
000000d0: ad50 14be d44d 9938 5cdf afbd 5faf 903d
000000e0: c4ad 1f3a 22c6 a53d 8ade 393c 7228 983d
000000f0: 19f6 d2ba 9e24 5e3d 08cb 0dbe e724 f1bc
00000100: 1eff 0a3e 1c7a e0bc a0c1 91be 96f7 45bb
00000110: d4ce 713e 5d3a 99bd 1d45 d63d 4dae 1cbe
00000120: ab98 013d 1fa4 81bc f000 e4bc 4a0d 7b3d
00000130: d5fe 1cbe c741 27bd 5fe2 9b3d 3435 21bc
00000140: 2e9d ccbd 06a1 09bd ec97 773d c421 c63d
00000150: db7b 113d b69c 81bd a93f 8abd 3657 573d
00000160: ab9c 5ebb d1d3 eb3d 60be 483d 3f82 d13d
00000170: cf08 31bd c8dd 413d 8477 813b e1ff 003b
00000180: 9d0e 6d3b e7f8 db3d 7d8a 913d f151 1bbe
00000190: d9f3 df3d 07cc 9abc ef4a 20bd 62e2 9a3b
000001a0: 5bac bf3d 5c10 733c dcb5 3abc 398b b8bc
000001b0: 84cb bcbc 14f4 ca3d cf72 a8ba a382 e1bb
000001c0: a6ff 4bbe 277f 2dbe 1d25 0fbd fcff 3abe
000001d0: 370d 9d3d d336 82bd db26 c5bd a7af bdbd
000001e0: 0dcc 3abe fd6f dabd 0e53 5d3e 62cc 1ebe
000001f0: eb2f a7bd e463 473e 660d e4bd 13be 823d
00000200: be06 ccbd d332 0c3e c97c cfbd 86fd d93b
00000210: 69d6 b03b 905b 393e a2c4 943c a380 72bc
00000220: 13e3 6abd 41de 00be b08f 873e b8a0 1bbc
00000230: 5dfe 2a3e 7b3b 3c3e b61c 26be b195 b4bd
00000240: c8ee 17be 54bf 953b d1fc f73d 80a8 cabe
00000250: 1d4e 243e 0451 d3bd 365f 6ebe 5813 2a3d
00000260: 14a0 db3c 730d 0cbe 9204 4fbc 6fb7 f8bc
00000270: f8c0 9c3d d099 2f3e c7df a4bc 7fd4 7bbc
00000280: c392 3dbc 5d9c 3dbe c02e 283e 6acb d8bd
00000290: e7b3 bf3d 2eb7 b53c 155a e1bd 0fa5 d13d
000002a0: f6e1 a13d ce76 a5bd 2e7a 36be e936 9d3d
000002b0: e852 a4ba 8f2c 933d 9b1d fd3d 6401 6e3c
000002c0: 31c8 853d 16c2 fabd 2efd a4bd 83bc 20bd
000002d0: b3c5 fd3d 3396 ff3c 73b7 643d 360f ad3c
000002e0: ba39 783c 2ab5 2abd ad81 553d 3dcb a83d
000002f0: 2ba0 7fbd 090f fbbc 5aea bdbe 4d4f 013e
00000300: 6504 4fbc 7f34 193e 05e0 293d fdaa 22be
00000310: 89de ed3c cb01 55bd 4a21 cebc dc91 cb3d
00000320: 76f0 423d 4a6b 26be 8944 acbc d602 103d
00000330: 1e82 8abb a130 1cbe 5da9 f4bd dc63 ebb9
00000340: 19c3 4f3d 4969 763d 6ca6 a33d c263 33be
00000350: dd6f 123e 1e41 c23d 96aa e93a 3f8f 12be
00000360: 655f eabd 9949 733d 1f07 c43c f8fb 8fbd
00000370: 37dd 1fbe 60c4 b33d fc84 ac3c da9a dc3b
00000380: 6bca 4ebd eb4e d4bc 351b 643d d9b2 583c
00000390: 4781 d3bd fb41 29be b279 58bd 7e19 bd3d
000003a0: 0f6d 473b 39d6 563c 4894 523e a20e b6bc
000003b0: 86ec c9bd 3437 6e3d aa84 77be c064 06be
000003c0: e474 883d 56db e6bd 2510 433d de0b 813d
000003d0: 834e 11be ff6d 6a3d e001 33bc 0082 08be
000003e0: 2394 0b3b 0114 ce3d d9b6 043e d43e e93d
000003f0: 75a1 34bc cf9b cd3d 6a0c 2dbe cf4a 62be

conv1.bias f4 [20]
0.0068524084 0.07340826 0.008956645 -0.0346228 0.021647507 -0.031299137 -0.0049031475 0.048205145
0.04245759 0.03281763 -0.043278452 -0.042794187 0.10509556 -0.043025207 0.051229037 0.051163066
-0.04017012 0.019126337 0.0076059434 0.040405113
00000000: 2b8a e03b 1257 963d e4be 123c a3d0 0dbd
00000010: 1d56 b13c 8633 00bd 95aa a0bb c272 453d
00000020: 03e8 2d3d c76b 063d bf44 31bd f548 2fbd
00000030: 573c d73d 333b 30bd 8ad5 513d 5d90 513d
00000040: 6c89 24bd d6ae 9c3c 473b f93b d57f 253d

conv2.weight f4 [20, 20, 2, 3]
0.07602227 -0.006703911 -0.0055913655 0.082134865 -0.016232248 -0.007341772 0.13259703 0.13284259
0.101454906 -0.03696281 -0.068249 0.05444348 0.08702409 -0.042362623 -0.12220079 -0.0133365635
-0.01456459 0.030394394 0.037347827 -0.12832063 0.022896009 0.076452635 -0.06267905 0.06766421
0.06257285 -0.047996383 -0.053483687 -0.07262552 0.07393672 0.025290191 -0.0063592563 -0.062193703
-0.011584102 0.15879425 -0.14316106 -0.034663014 -0.03292949 0.03153833 -0.05648721 0.17261414
0.061822146 -0.036628734 -0.0039611203 0.031521518 -0.10264771 0.13156113 -0.06010523 0.16835864
0.011691213 -0.096487515 -0.011088754 0.0631794 0.19722924 0.18131875 0.025521286 0.096681766
0.010624459 0.11686215 -0.03526548 -0.24488242 -0.035398595 0.11291488 -0.068798825 0.05027627
-0.10045893 -0.18022004 -0.013199662 -0.081580795 -0.19920821 -0.031255566 -0.061601467 -0.03077257
0.094822325 0.07505334 0.021976177 0.15821524 0.091899805 0.017093726 0.04719125 -0.07697162
-0.084807865 0.15055019 -0.058927324 0.050619658 -0.0060211876 -0.15404458 0.0056249364 0.10550342
0.14987047 0.06437357 -0.03484664 0.085807465 -0.016939163 0.20776857 0.083184086 -0.24655426
-0.036317766 -0.060029734 -0.06301401 -0.045487978 -0.019520715 -0.12585242 0.15142778 -0.06911596
-0.056969702 -0.09039424 0.0066229575 -0.08798475 -0.06829048 -0.0358397 0.06291416 0.024003342
-0.047452148 -0.06361585 0.022746377 0.05599698 0.0010219523 -0.076167405 -0.010995893 0.13271797
0.14089791 -0.048692062 0.012939713 0.11304027 0.009563259 -0.11309979 -0.09006496 -0.044076018
-0.073400736 0.052264832 -0.058412742 -0.065440916 -0.024392698 0.041389994 -0.06517285 -0.024086423
-0.11936725 -0.15479566 -0.07301942 0.07940091 -0.056601934 -0.12987286 -0.15331681 -0.10290755
-0.11055301 -0.0075565176 -0.03513105 -0.03290381 -0.10386254 -0.017954146 0.1716154 -0.096771106
-0.10453312 0.10544206 -0.10199441 -0.07856909 0.1210112 0.012946446 0.057041038 0.07048803
0.043172974 -0.07422675 0.019282142 -0.19320121 -0.046347167 -0.058509994 -0.08041392 -0.20303242
0.007461374 -0.012324513 0.024520898 -0.04942647 -0.049504235 -0.03720824 -3.4360088e-05 -0.04593268
0.061516598 0.13061064 -0.02889855 -0.010415905 0.10340295 -0.05145767 0.024021158 -0.0072377776
-0.10514338 -0.14694028 0.21355869 0.039359067 -0.033177763 0.14534555 -0.024109732 -0.16001697
0.011001848 0.0249075 -0.094425015 -0.077950686 -0.10830298 -0.06132365 0.052121628 0.033072025
-0.01700254 0.028605914 0.02410442 0.038021855 0.050178837 0.09583911 -0.008645876 0.12046837
-0.029087666 -0.00783842 -0.0038063424 -0.044880487 -0.086696 -0.050853938 -0.08007261 -0.13637035
-0.006482565 -0.024873596 0.04119282 0.022666622 -0.015085635 0.0038693468 -0.002117307 0.043239
-0.09007124 -0.008190626 0.013439989 -0.027289415 -0.19474106 -0.077945404 -0.09706085 0.14277522
0.11821349 0.030805044 0.018262379 -0.008682011 -0.10382082 0.06676778 -0.0029156704 -0.02503769
-0.0132039115 0.036875106 -0.055222645 -0.033031475 -0.10879117 -0.11606247 0.07491849 0.052123293
-0.039791375 0.032205816 -0.10554851 -0.0976548 -0.06841353 0.005756238 -0.0997814 -0.081850156
00000000: 90b1 9b3d 7bac dbbb c637 b7bb 5336 a83d
00000010: 7ef9 84bc 3f93 f0bb 84c7 073e e307 083e
00000020: 97c7 cf3d 5166 17bd 22c6 8bbd 2000 5f3d
00000030: b039 b23d 6e84 2dbd 6844 fabd 9a81 5abc
00000040: 51a0 6ebc aafd f83c 09fa 183d 7c66 03be
00000050: 6990 bb3c 3393 9c3d e05d 80bd 8993 8a3d
00000060: 3226 803d db97 44bd b611 5bbd b0bc 94bd
00000070: 236c 973d 602d cf3c 4f61 d0bb d3be 7ebd
00000080: 3fcb 3dbc f69a 223e d098 12be cefa 0dbd
00000090: 13e1 06bd 562e 013d 225f 67bd c3c1 303e
000000a0: 3839 7d3d 0308 16bd 49cc 81bb b51c 013d
000000b0: f638 d2bd f6b7 063e e730 76bd 3566 2c3e
000000c0: 808c 3f3c 3f9b c5bd 9bad 35bc 3464 813d
000000d0: 76f6 493e 9fab 393e 0412 d13c 1701 c63d
000000e0: 3612 2e3c 6c55 ef3d 8972 10bd 75c2 7abe
000000f0: 1efe 10bd eb3f e73d 66e6 8cbd 7dee 4d3d
00000100: 69bd cdbd 9a8b 38be 6543 58bc d513 a7bd
00000110: 3dfd 4bbe d605 00bd d251 7cbd c216 fcbc
00000120: 3532 c23d 91b5 993d 6207 b43c 2d03 223e
00000130: f735 bc3d 2408 8c3c 9d4b 413d 4ca3 9dbd
00000140: bfaf adbd d429 1a3e c75d 71bd 8f56 4f3d
00000150: 624d c5bb ddbd 1dbe 6351 b83b 2d12 d83d
00000160: a577 193e 4ad6 833d 5abb 0ebd d3bb af3d
00000170: 00c4 8abc 49c1 543e 6b5c aa3d b878 7cbe
00000180: f0c1 14bd bde1 75bd 7d0d 81bd 9a51 3abd
00000190: e8e9 9fbc 75df 00be e20f 1b3e ab8c 8dbd
000001a0: 1059 69bd 9e20 b9bd 6505 d93b 5931 b4bd
000001b0: e1db 8bbd a6cc 12bd 24d9 803d a8a2 c43c
000001c0: 2f5d 42bd 0749 82bd 9c56 ba3c 175d 653d
000001d0: 07f3 853a a8fd 9bbd 1e28 34bc 38e7 073e
000001e0: 8b47 103e 5471 47bd 1701 543c a881 e73d
000001f0: 37af 1c3c dda0 e7bd fa73 b8bd 0e89 34bd
00000200: 2053 96bd a613 563d 3342 6fbd e305 86bd
00000210: 32d3 c7bc 8e88 293d 5879 85bd e450 c5bc
00000220: d176 f4bd c182 1ebe 358b 95bd f29c a23d
00000230: 6ed7 67bd 64fd 04be 15ff 1cbe 32c1 d2bd
00000240: 9e69 e2bd aa9c f7bb 93e5 0fbd 25c6 06bd
00000250: e2b5 d4bd 9314 93bc f3bb 2f3e ee2f c6bd
00000260: 7615 d6bd 02f2 d73d 72e2 d0bd d5e8 a0bd
00000270: b8d4 f73d 551d 543c dda3 693d 075c 903d
00000280: 25d6 303d 3204 98bd 95f5 9d3c 8ad6 45be
00000290: 87d6 3dbd 2da8 6fbd 0eb0 a4bd bbe7 4fbe
000002a0: 8b7e f43b c1ec 49bc 0de0 c83c 6973 4abd
000002b0: f4c4 4abd ab67 18bd dd1d 10b8 e823 3cbd
000002c0: d4f8 7b3d ccbe 053e a7bc ecbc 79a7 2abc
000002d0: edc4 d33d 47c5 52bd 05c8 c43c e12a edbb
000002e0: 6a55 d7bd 8377 16be 21af 5a3e f936 213d
000002f0: 68e5 07bd 77d5 143e c681 c5bc 7ddb 23be
00000300: 1841 343c d00a cc3c e761 c1bd 9ca4 9fbd
00000310: f4cd ddbd 822e 7bbd 7d7d 553d 8876 073d
00000320: e948 8bbc f356 ea3c a276 c53c cebc 1b3d
00000330: 5388 4d3d 4c47 c43d 6fa7 0dbc 1fb8 f63d
00000340: 4249 eebc b76c 00bc d473 79bb 9ad4 37bd
00000350: ac8d b1bd 384c 50bd 1cfd a3bd aba4 0bbe
00000360: b26b d4bb b6c3 cbbc cdb9 283d 5aaf b93c
00000370: bd29 77bc de94 7d3b 84c2 0abb 611b 313d
00000380: 4577 b8bd fa31 06bc 6633 5c3c 0d8e dfbc
00000390: 336a 47be d7a1 9fbd d7c7 c6bd ab33 123e
000003a0: ea19 f23d dc5a fc3c fc9a 953c fe3e 0ebc
000003b0: 03a0 d4bd 8cbd 883d d514 3fbb d71b cdbc
000003c0: 3855 58bc 5a0a 173d 2431 62bd 034c 07bd
000003d0: e8cd debd 29b2 edbd de6e 993d 3c7f 553d
000003e0: 48fc 22bd 3fea 033d d129 d8bd 3dff c7bd
000003f0: 651c 8cbd d39e bc3b 315a ccbd 0ea1 a7bd

conv2.bias f4 [20]
0.15497217 -0.0028353033 -0.08115928 0.0026508495 -0.099604875 -0.10717206 -0.0815401 -0.09250737
0.09200697 0.061697427 0.006533481 -0.059161533 -0.016189711 0.032882217 -0.04847096 0.13461787
0.107905045 0.05116362 -0.0145366965 0.043172207
00000000: 06b1 1e3e 7fd0 39bb d636 a6bd e0b9 2d3b
00000010: a4fd cbbd 067d dbbd 7ffe a6bd 8174 bdbd
00000020: 266e bc3d 71b6 7c3d d016 d63b 5d53 72bd
00000030: 49a0 84bc 81af 063d 7c89 46bd 44d9 093e
00000040: 52fd dc3d f290 513d 532b 6ebc 57d5 303d

fc1.weight f4 [2, 151]
0.18748178 0.01432638 0.041062266 -0.0124230785 0.06947148 0.022441832 -0.06031092 0.009583098
0.0032674028 -0.000610724 -0.06652249 0.023119066 -0.018054003 0.03897925 -0.08043838 0.04287188
-0.01794051 0.068881385 -0.08010168 -0.009670071 -0.040003605 0.05476244 -0.0103170965 -0.0017865767
0.042941283 -0.03795127 -0.09399334 -0.06641275 0.024818802 -0.026117474 -0.032193054 -0.056853995
-0.20193326 0.18422206 0.010403952 0.030396642 0.12938486 -0.0058319787 -0.012395196 -0.004532391
-0.1278019 -0.16593249 0.05962141 0.046489563 -0.06523674 0.017832987 0.022351503 -0.037110478
0.03036975 -0.03144975 -0.040543895 0.001728924 0.12786461 -0.16339657 0.028547587 0.019906262
-0.050009906 0.015420823 -0.012048732 -0.058424875 -0.1564628 0.037785113 0.12807332 0.024270741
0.19069836 -0.18387279 0.02293497 -0.00029379173 -0.119309664 -0.035740323 0.050917007 0.11429466
-0.041540466 -0.041145638 -0.020250527 -0.051510103 0.12690686 0.24736036 -0.0060158693 0.09360816
-0.05710638 0.22182044 0.059123892 0.02272371 0.02035739 -0.17560492 -0.013407496 -0.10880546
-0.13581045 -0.28038418 -0.053468984 -0.17117517 0.21789388 0.20373674 -0.025131397 -0.1303449
0.5257368 0.18502866 -0.12210532 -0.06965445 0.10571775 0.29754582 0.056802943 -0.03698628
0.42132816 0.1371951 -0.015530201 -0.08979473 -0.14269218 0.4035624 -0.2160662 0.25025263
0.05448399 -0.0866277 -0.1049134 -0.15279698 0.06709123 -0.12718965 0.089429714 -0.0897494
-0.16108689 -0.040146463 -0.054382402 -0.055951547 -0.008780961 0.16532286 0.39478898 -0.19121443
0.036789592 0.18713804 -0.13513535 0.13417856 -0.08558546 0.29348898 0.07826732 0.12256918
0.1602175 0.30804926 -0.05243502 -0.06805579 0.018715713 0.2514163 0.011005601 -0.040057864
0.0004821367 -0.002712574 0.07812072 0.042972103 0.10356062 0.07126483 -0.08395897 -0.214735
-0.08916109 -0.07071478 -0.107220784 -0.0085053 -0.0037402418 0.10139413 -0.0750586 0.023046391
-0.064414054 0.00018922024 -0.018394003 -0.017855454 -0.035409465 0.034784965 0.043915395 0.017304806
-0.0380397 0.05283427 0.032490537 -0.069131136 0.07219656 -0.028091589 0.019809298 0.09726174
-0.0521359 -0.049073447 0.0041587027 0.0037278892 0.023366053 -0.04135549 0.0634241 0.17003529
-0.20653784 -0.15228817 -0.09751899 -0.13148464 0.13112889 -0.07380347 -0.12888482 0.17499802
0.18224782 -0.04179594 -0.044276416 0.0009843312 0.025763197 0.0015171429 -0.07993974 0.06770812
-0.032819707 -0.0076951655 0.087085165 -0.010606424 0.13691941 -0.07202581 -0.13353379 0.010061089
-0.026014902 0.03782313 0.09992409 0.1692683 -0.06975485 -0.09327218 -0.117177546 -0.14296044
0.0978536 0.036523804 -0.061598435 0.059517402 0.17192759 -0.008807712 -0.07205794 -0.03128959
0.023223493 0.040504005 -0.027054228 -0.035457637 -0.19644886 0.05090759 -0.0032758128 0.05751909
-0.3114994 -0.03476042 0.05238966 0.09788969 0.1858084 0.013572507 0.060028825 0.09720846
0.31723678 0.08097988 0.14299016 -0.32902282 -0.35258985 -0.019946821 0.09045722 -0.62428474
-0.10758939 0.036241982 -0.02279759 -0.08051449 -0.35812232 -0.02570976 -0.02599418 -0.47909093
00000000: 39fb 3f3e 31b9 6a3c e830 283d 2b8a 4bbc
00000010: 1047 8e3d efd7 b73c 9508 77bd 6d02 1d3c
00000020: ec21 563b fe18 20ba f13c 88bd 3264 bd3c
00000030: fde5 93bc b5a8 1f3d e1bc a4bd 6d9a 2f3d
00000040: faf7 92bc af11 8d3d 590c a4bd 386f 1ebc
00000050: d2da 23bd 954e 603d 0a09 29bc 912b eaba
00000060: 33e3 2f3d ca72 1bbd 957f c0bd 6803 88bd
00000070: cd50 cb3c 50f4 d5bc dddc 03bd bcdf 68bd
00000080: 98c7 4ebe b5a4 3c3e 5675 2a3c 6102 f93c
00000090: 777d 043e 2f1a bfbb 3815 4bbc 7484 94bb
000000a0: 80de 02be 35ea 29be 9435 743d d76b 3e3d
000000b0: d79a 85bd 7c16 923c 801a b73c 2801 18bd
000000c0: fbc9 f83c 74d1 00bd 5b11 26bd 109d e23a
000000d0: f1ee 023e 6e51 27be a1dc e93c 7512 a33c
000000e0: 30d7 4cbd 9fa7 7c3c 0b68 45bc ec4e 6fbd
000000f0: c937 20be 90c4 1a3d a725 033e 6fd3 c63c
00000100: 6e46 433e 2649 3cbe 1ee2 bb3c 0f08 9ab9
00000110: a058 f4bd 7264 12bd 5a8e 503d 5213 ea3d
00000120: 5626 2abd 5488 28bd 6fe4 a5bc 42fc 52bd
00000130: dff3 013e 094c 7d3e c520 c5bb a3b5 bf3d
00000140: 61e8 69bd e624 633e e52b 723d 1327 ba3c
00000150: 8bc4 a63c c7d1 33be 1dab 5bbc 66d5 debd
00000160: e511 0bbe 848e 8fbe 4b02 5bbd 8b48 2fbe
00000170: 931f 5f3e 5da0 503e 5ce0 cdbc 2279 05be
00000180: b096 063f 2778 3d3e 5b12 fabd fea6 8ebd
00000190: 8c82 d83d ed57 983e 34aa 683d ed7e 17bd
000001a0: 53b8 d73e df7c 0c3e 6272 7ebc 4de6 b7bd
000001b0: e61d 12be bb9f ce3e 7540 5dbe 1d21 803e
000001c0: 9b2a 5f3d dd69 b1bd d6dc d6bd d076 1cbe
000001d0: 2067 893d 013e 02be ed26 b73d 89ce b7bd
000001e0: f6f3 24be 9e70 24bd 15c0 5ebd 732d 65bd
000001f0: 05de 0fbc 654a 293e c821 ca3e b7cd 43be
00000200: afb0 163d 1da1 3f3e ec60 0abe 1b66 093e
00000210: 6e47 afbd 3044 963e 9e4a a03d 8d05 fb3d
00000220: 0e10 243e a2b8 9d3e 1bc6 56bd d660 8bbd
00000230: b251 993c a3b9 803e d650 343c b713 24bd
00000240: 4bc7 fc39 71c5 31bb c2fd 9f3d 8403 303d
00000250: 9717 d43d 4cf3 913d aef2 abbd 7ee3 5bbe
00000260: 179a b6bd e9d2 90bd 9296 dbbd d059 0bbc
00000270: d81e 75bb baa7 cf3d 53b8 99bd c9cb bc3c
00000280: 84eb 83bd 6c69 4639 05af 96bc 9a45 92bc
00000290: 8409 11bd ae7a 0e3d a1e0 333d cfc2 8d3c
000002a0: 84cf 1bbd bf68 583d cc14 053d a094 8dbd
000002b0: cadb 933d 5520 e6bc 1c47 a23c 2a31 c73d
000002c0: 748c 55bd 3d01 49bd ba45 883b 9a4f 743b
000002d0: 2a6a bf3c 6064 29bd 7fe4 813d bb1d 2e3e
000002e0: a87e 53be 6ef1 1bbe 09b8 c7bd e9a3 06be
000002f0: a746 063e 4626 97bd 62fa 03be ae32 333e
00000300: 2c9f 3a3e 3832 2bbd 305b 35bd ad04 813a
00000310: 570d d33c deda c63a 72b7 a3bd 8eaa 8a3d
00000320: f56d 06bd ba27 fcbb b559 b23d 91c6 2dbc
00000330: 9a34 0c3e 4582 93bd 15bd 08be 44d7 243c
00000340: 341d d5bc 6dec 1a3d 00a5 cc3d ab54 2d3e
00000350: a1db 8ebd 7c05 bfbd c8fa efbd 3964 12be
00000360: 7867 c83d fc99 153d a44e 7cbd 85c8 733d
00000370: c90d 303e 394e 10bc 1d93 93bd 8329 00bd
00000380: 323f be3c 87e7 253d d4a0 ddbc 073c 11bd
00000390: e429 49be 7a84 503d 05af 56bb 2399 6b3d
000003a0: d97c 9fbe f160 0ebd 8a96 563d 647a c83d
000003b0: 8f44 3e3e 385f 5e3c c9e0 753d 3b15 c73d
000003c0: dc6c a23e c8d8 a53d 036c 123e ae75 a8be
000003d0: a886 b4be 8467 a3bc a341 b93d 20d1 1fbf
000003e0: d357 dcbd 7972 143d 03c2 babc c8e4 a4bd
000003f0: cf5b b7be 469d d2bc bff1 d4bc 684b f5be

fc1.bias f4 [2]
0.11161402 -0.13755073
00000000: e495 e43d 19da 0cbe
