models/mouse_cnn_C57BL6_mouse_1.pt (torch, 292738 bytes, 12 tensors)

conv1.weight f4 [60, 20, 5]
0	0x3d2adf16	0.041716658
1	0x3dba3137	0.09091418
2	0x3d2662bf	0.040621515
3	0xbd2cba38	-0.04216978
4	0xbd530196	-0.051515184
5	0xbced165c	-0.028941326
6	0xbdba440d	-0.09095011
7	0xbe8a8d76	-0.2706105
8	0x3da6b04e	0.08139096
9	0x3e18a1e3	0.14905505
10	0xbee76178	-0.4519155
11	0x3e37d703	0.17953114
12	0x3d9080c5	0.07055811
13	0x3dbacdf0	0.09121311
14	0x3e0fd3c6	0.14045629
15	0x3d303236	0.043016635
16	0xbe4efad7	-0.20212875
17	0x3e6fd15d	0.2341971
18	0x3d8eae1b	0.06966802
19	0x3e007132	0.1254318
20	0x3d11f530	0.03563422
21	0xbe1c1834	-0.15243608
22	0x3e32c8e7	0.1745945
23	0x3e972033	0.29516754
24	0x3de66725	0.11250142
25	0xbdcca9d5	-0.099933304
26	0xbe2e2d0e	-0.17009374
27	0xbf0f3fe1	-0.55956846
28	0x3d2ccf04	0.042189613
29	0x3e4ef970	0.2021234
30	0xbe8c532d	-0.27407208
31	0xbdb0acd2	-0.08626713
32	0x3df4357d	0.119242646
33	0xbe163049	-0.14666857
34	0x3e0ce621	0.13759662
35	0x3c1d8fa5	0.009616767
36	0xbeb5f0a5	-0.3553516
37	0x3e672d30	0.22575831
38	0xbe87b60b	-0.26506075
39	0x3e2b6404	0.16737372
40	0xbe4e36f4	-0.2013815
41	0xbe584578	-0.2112025
42	0xbe661c14	-0.22471648
43	0x3e2106c1	0.15725233
44	0x3dd6d36a	0.10489543
45	0x3d3de831	0.046364013
46	0x3e2cfc21	0.16893055
47	0x3e1790a9	0.14801277
48	0x3eeeda38	0.46650863
49	0xbd9f9e6a	-0.07793887
50	0xbc033eb6	-0.008010557
51	0x3d11f94b	0.035638135
52	0xbf2d1818	-0.6761489
53	0x3e589f59	0.21154536
54	0x3dbb5bd9	0.09148378
55	0xbe44b48e	-0.19209501
56	0xbe40bed7	-0.188228
57	0xbe29f7dc	-0.16598457
58	0x3c8cc045	0.017181525
59	0x3e6cf63b	0.23140804
60	0x3e0e3257	0.1388639
61	0xbe57c9f6	-0.21073136
62	0xbf361e88	-0.71140337
63	0x3e21bbbc	0.15794271
64	0x3d8a46dc	0.067517966
65	0x3cda1583	0.026621586
66	0x3e414f73	0.18877964
67	0xbf2b4d26	-0.66914594
68	0x3c05817a	0.008148545
69	0xbb8191cb	-0.0039541475
70	0x3d4995eb	0.04921524
71	0xbd6f8ae3	-0.058482062
72	0xbe9214cc	-0.28531492
73	0x3d2729ad	0.04081123
74	0x3e7f0338	0.24903572
75	0x3ddf4a42	0.109028354
76	0xbe1b6581	-0.1517544
77	0x3c9889f3	0.018620467
78	0x3df14463	0.11780622
79	0x3e1c6ab8	0.15275085
80	0x3cd9d691	0.026591571
81	0x3df83cd3	0.12120976
82	0x3e254cbe	0.16142556
83	0xbed6af8a	-0.419308
84	0x3e259a15	0.16172059
85	0x3e16a45b	0.14711134
86	0x3e82fbcb	0.25582728
87	0xbe898f20	-0.26867008
88	0xbd8c7695	-0.06858555
89	0xbe24c548	-0.16090882
90	0xbe8680f7	-0.26270267
91	0xbefd619f	-0.4948854
92	0xbe11dd3e	-0.14244553
93	0x3dd63ff2	0.10461415
94	0x3c2fcc8a	0.010729918
95	0xbe45397b	-0.19260208
96	0x3e0c40a7	0.13696538
97	0xbe277db4	-0.16356546
98	0xbf211abc	-0.6293142
99	0x3d7bdf74	0.0614924
100	0xbe33aa07	-0.17545329
101	0x3cfd3727	0.030910088
102	0xbef50903	-0.47858438
103	0x3e5bd32b	0.21467273
104	0x3dd66dc4	0.10470155
105	0x3d43c679	0.0477967
106	0xb990dbf9	-0.00027629713
107	0x3a04312a	0.00050427264
108	0x3d620a90	0.055185854
109	0xbe8cf1ef	-0.2752833
110	0xbe72c059	-0.23706187
111	0xbf288a02	-0.65835583
112	0x3e6266c5	0.22109516
113	0x3d1e25a9	0.038610134
114	0xbee14226	-0.4399578
115	0xbe68533b	-0.22688
116	0xbee7fce5	-0.4531013
117	0xbdaf3719	-0.08555431
118	0xbf13faa5	-0.5780433
119	0x3e580f65	0.21099623
120	0x3cc51b3e	0.024060842
121	0xbe1e9ced	-0.1548955
122	0x3e06a603	0.13149266
123	0xbf151ce8	-0.5824723
124	0x3cb1c248	0.021699086
125	0x3de1710b	0.11007889
126	0x3e85c983	0.26130304
127	0x3d2f464f	0.04279166
128	0xbd803549	-0.06260163
129	0xbe8cbb2b	-0.27486548
130	0xbda9746d	-0.082741596
131	0x3d4044f2	0.04694075
132	0xbe834eab	-0.25645956
133	0x3e8b974a	0.27263862
134	0x3dbfa305	0.093572654
135	0xbd6a5e41	-0.057218794
136	0xbde53d5d	-0.11193345
137	0xbea51431	-0.32241967
138	0x3e802ee7	0.25035784
139	0x3dd3b4dd	0.10337231
140	0xbe8b0573	-0.27152595
141	0xbc8d7347	-0.017266883
142	0x3e3f0777	0.18655191
143	0xbe77d2ca	-0.24201503
144	0xbe923928	-0.28559232
145	0xbc4df141	-0.012569726
146	0x3e1bc0a5	0.15210207
147	0x3e3eae18	0.18621099
148	0x3c7c373c	0.015394028
149	0xbf01f435	-0.50763255
150	0x3d84ed4e	0.06490575
151	0x3e72f732	0.2372711
152	0xbea28115	-0.31739107
153	0x3d0140c1	0.031555895
154	0xbe84b128	-0.2591641
155	0x3ddc4b0e	0.10756503
156	0x3d203d8b	0.039121192
157	0xbe6b002e	-0.22949287
158	0xbbf6700f	-0.0075206826
159	0xbee49a23	-0.44648847
160	0x3e92e64b	0.28691325
161	0xbcd1f67d	-0.02563023
162	0x3ea73521	0.32657722
163	0x3e0981ae	0.13428375
164	0xbf123c43	-0.571232
165	0x3e1f2ac7	0.15543662
166	0xbe6df6ef	-0.23238729
167	0x3e8f46a6	0.27983588
168	0xbea1cc7f	-0.3160133
169	0xbe4f0df1	-0.20220162
170	0xbd4879f4	-0.04894443
171	0xbc09811a	-0.008392597
172	0xbe604e4c	-0.21904868
173	0xbe50ccef	-0.20390676
174	0xbe8c2924	-0.27375138
175	0xbdf4f3ba	-0.1196055
176	0x3caf59f1	0.021405192
177	0x3e23cabc	0.15995306
178	0xbdf55a23	-0.11980083
179	0xbe87a692	-0.2649427
180	0xbcdf1cf0	-0.027235478
181	0xbd2f3d37	-0.04278299
182	0xbeca626b	-0.39528212
183	0x3c84b879	0.016201245
184	0xbea09ba2	-0.31368738
185	0xbdf285eb	-0.11841949
186	0xbe0c84db	-0.13722555
187	0x3e4c10db	0.19928305
188	0xbf00289d	-0.5006197
189	0x3ea77776	0.3270833
190	0xbd6c9abd	-0.057764757
191	0x3d514a6f	0.051096376
192	0x3dc3f3ab	0.0956796
193	0xbe2fb965	-0.17160566
194	0xbe876416	-0.26443547
195	0xbc8750f4	-0.016518094
196	0xbdca13cf	-0.098670594
197	0xbd72e6bd	-0.05930208
198	0x3d39e648	0.04538563
199	0x3e8019b4	0.2501961
200	0x3e5812db	0.21100943
201	0xba62a9c7	-0.00086465146
202	0x3d64dd29	0.055874977
203	0xbe483e26	-0.19554958
204	0x3c832ae3	0.01601166
205	0xbde23cec	-0.11046776
206	0xbe804d64	-0.25059044
207	0x3d4ebbf3	0.05047221
208	0xbd89c99e	-0.067279086
209	0xbe1fbcdf	-0.15599392
210	0xbe8382b1	-0.25685647
211	0x3daa2357	0.08307522
212	0x3e02f358	0.12788141
213	0x3e4db1e6	0.20087394
214	0xbda53bfe	-0.08068083
215	0x3d1c7879	0.03820083
216	0x3dbfa90c	0.09358415
217	0x3e69fd20	0.22850466
218	0x3d4099e6	0.04702177
219	0x3d80d244	0.06290105
220	0x3d89ff9d	0.067382075
221	0xbd0c320a	-0.03422741
222	0x3ecf50e9	0.40491417
223	0x3d845cbd	0.06463001
224	0x3d9ee5bf	0.07758664
225	0xbd05212c	-0.03250234
226	0xbf3a73fd	-0.72833234
227	0xbe4d5573	-0.20052128
228	0x3e17a792	0.14810017
229	0xbe6a5eb2	-0.22887686
230	0x3c835092	0.01602963
231	0xbe434ad5	-0.19071515
232	0xbcd6a093	-0.026199615
233	0xbd782980	-0.060586452
234	0x3de18481	0.11011601
235	0x3c2a8c62	0.010409446
236	0xbda75748	-0.081709445
237	0xbe8e04b7	-0.27737972
238	0xbea66f97	-0.3250701
239	0x3d9062d5	0.07050101
240	0xbd8a1c1d	-0.067436434
241	0xbcf91abe	-0.03040826
242	0xbd958015	-0.0729982
243	0x3dd3a375	0.10333911
244	0xbe174b26	-0.1477476
245	0x3dbb4205	0.091434516
246	0x3df50a7a	0.11964889
247	0xbf54dfae	-0.8315381
248	0x3c192238	0.009346537
249	0x3ddcff52	0.10790886
250	0xbdd79a8f	-0.105275266
251	0x3e9f76d7	0.31145355
252	0xbe8096d3	-0.2511507
253	0xbdda0b7c	-0.10646722
254	0xbc675bcb	-0.014121006
255	0x3aba5fbf	0.0014219208

conv1.bias f4 [60]
0	0xbe04a860	-0.12954855
1	0x3d8d046d	0.0688561
2	0xbd86aa3e	-0.0657544
3	0xbe06c2a2	-0.13160184
4	0x3d8ba334	0.06818238
5	0xbdfea8f6	-0.124345705
6	0xbe01893b	-0.12650006
7	0x3d918f13	0.07107367
8	0xbd9e22a7	-0.07721453
9	0xbd0ffa8b	-0.035151046
10	0xbd98c236	-0.07458918
11	0x3d80a8a6	0.06282167
12	0xbda4da2c	-0.080494255
13	0x3d57b0d1	0.05265886
14	0xbd937c20	-0.07201409
15	0xbd30bd89	-0.043149505
16	0x3d86e3c1	0.06586409
17	0xbd0d5db7	-0.0345132
18	0x3d061667	0.03273621
19	0x3d8eea8d	0.06978331
20	0xbd450a63	-0.04810561
21	0xbcf70bac	-0.030156933
22	0xbd857673	-0.06516733
23	0x3d6ffe73	0.05859227
24	0xbd978814	-0.07399002
25	0x3d8da95a	0.06917067
26	0xbcdd0a83	-0.026982551
27	0x3d91561a	0.07096501
28	0xbd5c58be	-0.05379557
29	0x3d1b004b	0.037842076
30	0xbd6b9561	-0.057515506
31	0x3caacaa9	0.020848589
32	0x3d6d20cd	0.05789261
33	0x3da34f36	0.07974093
34	0xbd9493b4	-0.07254735
35	0xbdb2e653	-0.08735337
36	0xbcd44477	-0.025911553
37	0x3db75305	0.089513816
38	0xbdcf8243	-0.10132267
39	0xbd8af1f1	-0.06784428
40	0xbc907da8	-0.017638043
41	0xbd3195e3	-0.043355834
42	0xbd510637	-0.051031318
43	0x3d5f4be6	0.05451574
44	0xbc51aea9	-0.01279799
45	0xbca6e7ab	-0.02037414
46	0x3db32b53	0.08748498
47	0xbd8fb51f	-0.07016968
48	0x3d1a7ac3	0.03771473
49	0x3da8a508	0.08234602
50	0xbcf4438e	-0.029817369
51	0xbe0b508b	-0.13604943
52	0x3d1776ec	0.036978647
53	0x3de4f31d	0.11179183
54	0xbdb7244f	-0.08942472
55	0xbd251e1d	-0.04031192
56	0x3d1d2256	0.038362823
57	0xbd62e91a	-0.055398084
58	0x3dce28a9	0.10066349
59	0x3d49ef9d	0.04930078

conv2.weight f4 [80, 60, 3]
0	0x3e1976eb	0.1498677
1	0xbe891793	-0.26775798
2	0xbe280611	-0.16408564
3	0x3e33c169	0.17554249
4	0xbeab8b01	-0.3350449
5	0x3c452971	0.012033806
6	0xbe38f336	-0.18061528
7	0x3e686a14	0.22696716
8	0xbd846e8e	-0.06466399
9	0x3e8a175c	0.26970947
10	0x3e6471ca	0.22309032
11	0x3d64288b	0.055702727
12	0x3dbad32c	0.09122309
13	0x3e748e99	0.23882522
14	0x3df3152c	0.118692726
15	0xbd046232	-0.03232021
16	0xbd707218	-0.05870256
17	0x3d70a8f8	0.05875489
18	0xbda65ca3	-0.08123138
19	0x3d8d1a46	0.06889777
20	0x3dae8482	0.085213676
21	0xbb967855	-0.0045919814
22	0x3cde4cbf	0.027136205
23	0x3ddf5344	0.109045535
24	0xbed16ce4	-0.4090339
25	0x3e1a8049	0.15088
26	0x3d39b083	0.04533435
27	0xbe1b1e01	-0.15148164
28	0xbc400399	-0.011719608
29	0xbe3c8416	-0.18409762
30	0xbe7fe170	-0.24988341
31	0x3e1c825f	0.15284108
32	0xbe0f2e67	-0.13982545
33	0xbdab1b95	-0.0835487
34	0xbcf28344	-0.029603608
35	0x3de2f0d7	0.11081093
36	0xbd6629a5	-0.05619206
37	0x3e703443	0.23457436
38	0xbda87f80	-0.08227444
39	0xbe3258f7	-0.1741675
40	0xbe6220f2	-0.2208288
41	0x3e2c48a0	0.16824579
42	0xbe154e4b	-0.14580648
43	0x3dc791c5	0.097446
44	0x3d8a1ecc	0.06744155
45	0x3ea5e08f	0.32397887
46	0xbe5ce408	-0.21571362
47	0xbdb014e7	-0.08597737
48	0xbd6a11ba	-0.05714581
49	0x3dbd3cad	0.092400886
50	0x3c7d782f	0.0154705485
51	0x3cbacab5	0.022801736
52	0x3d0940dc	0.03350912
53	0x3ba1ef1b	0.0049418337
54	0xbe03f0ff	-0.12884901
55	0xbeb32090	-0.3498578
56	0xbda8a9f5	-0.08235542
57	0x3c9db0af	0.019249288
58	0x3e26a088	0.16272175
59	0xbdb081f0	-0.086185336
60	0x3dd51157	0.10403698
61	0x3e6c77f3	0.23092632
62	0xbe0a0730	-0.13479304
63	0x3da61fc4	0.081115276
64	0x3e0f7109	0.14007963
65	0x3cdb53d8	0.026773378
66	0x3e34ba95	0.176493
67	0xbdb53a40	-0.08849001
68	0xbe10a4a1	-0.14125301
69	0xbd5b0dbb	-0.05347989
70	0x3cf7addf	0.030234275
71	0x3d0267f0	0.031837404
72	0x3e8229b8	0.25422454
73	0x3eab0be1	0.334075
74	0xbdb79a7b	-0.08965012
75	0xbea19889	-0.31561688
76	0xbcb0ca2d	-0.02158078
77	0xbde397ae	-0.11112915
78	0xbcffcd43	-0.031225806
79	0xbe19d242	-0.15021613
80	0xbd84d7cf	-0.06486475
81	0xbe0f2395	-0.13978417
82	0xbe8d15f9	-0.27555826
83	0x3db0e4f1	0.08637417
84	0x3ce85d4d	0.028364802
85	0xbdc57948	-0.09642273
86	0xbe41fbfd	-0.18943782
87	0xbde8e01f	-0.11370873
88	0xbec56bcc	-0.38558805
89	0xbdb8fbdd	-0.09032414
90	0xbd782b75	-0.06058832
91	0x3dd58795	0.10426251
92	0xbe9fd8f6	-0.31220216
93	0xbdb927a0	-0.09040761
94	0x3e92a809	0.28643826
95	0xbe74bc94	-0.23900062
96	0xbd47470a	-0.048651733
97	0xbed57e9d	-0.4169816
98	0x3d8f5e3a	0.07000394
99	0xbbb45e08	-0.0055043735
100	0x3d0ed0dd	0.034867156
101	0x3db6c9b4	0.089251906
102	0x3d25917a	0.04042194
103	0x3dc8846f	0.09790885
104	0x3da99212	0.08279814
105	0x3e44c9a8	0.19217551
106	0xbe38eeda	-0.18059865
107	0x3ce47672	0.02788851
108	0x3cf778ff	0.030209063
109	0x3d1a916f	0.037736353
110	0x3e332900	0.17496109
111	0xbd04bb48	-0.032405168
112	0x3d3c8110	0.04602152
113	0x3dd9801c	0.10620138
114	0xbb591767	-0.003312552
115	0xbe387001	-0.18011476
116	0x3de34ecc	0.11099014
117	0xbdaf5224	-0.08560589
118	0xbdb99ed2	-0.09063496
119	0x3db1d234	0.08682671
120	0x3d21e7f2	0.03952784
121	0xbebaa6d6	-0.3645541
122	0xbd585272	-0.052813
123	0x3dda7992	0.10667719
124	0xbdc02d54	-0.09383646
125	0xbcb95143	-0.022621756
126	0xbea7435e	-0.32668585
127	0x3e376a9a	0.17911759
128	0xbd84de5e	-0.06487726
129	0xbe460f38	-0.19341743
130	0xbd25991a	-0.040429212
131	0x3e34fcf4	0.17674619
132	0x3daa3380	0.08310604
133	0x3e61cdbd	0.22051139
134	0x3d5e279f	0.054237004
135	0xbe9b656a	-0.3035081
136	0x3e434541	0.19069387
137	0xbe5d1e40	-0.2159357
138	0xbdd0644f	-0.10175382
139	0x3e8afde2	0.27146822
140	0xbe052261	-0.13001396
141	0xbd4d696b	-0.050149363
142	0xbd990558	-0.07471722
143	0x3d50282b	0.050819557
144	0xbe7bdc0b	-0.24595658
145	0xbd13b577	-0.03606173
146	0x3d335f21	0.043791894
147	0xbe0c654f	-0.13710521
148	0x3dd36966	0.103228375
149	0x3ebbbda2	0.36668116
150	0x3cf35902	0.029705528
151	0x3c297b8a	0.010344395
152	0xbe32cdec	-0.17461365
153	0xbe8388bd	-0.2569026
154	0xbdc6dde1	-0.09710289
155	0xbdab78c2	-0.08372642
156	0x3d23cae1	0.039988402
157	0x3e905966	0.28193206
158	0xbca2a8ac	-0.01985582
159	0xbc90d0e0	-0.017677724
160	0xbe0b1927	-0.13583814
161	0xbc82fdaa	-0.015990097
162	0x3ea4ffdc	0.32226455
163	0xbe92319e	-0.2855348
164	0xbe113825	-0.14181574
165	0x3d6dadc7	0.058027055
166	0xbe5293f0	-0.20564246
167	0xbdacaae4	-0.08431032
168	0xbdf96ee7	-0.12179356
169	0x3c773291	0.01508774
170	0xbc34939d	-0.011021522
171	0xbe3e6dfd	-0.18596645
172	0x3deccac1	0.1156211
173	0xbe389121	-0.18024112
174	0x3dc29b10	0.09502232
175	0x3e227f35	0.15868838
176	0xbd99549f	-0.07486843
177	0xbed9c693	-0.42534313
178	0x3e7b9922	0.24570134
179	0xbda125d2	-0.07868542
180	0xbda545c5	-0.08069948
181	0xbe20918d	-0.15680523
182	0x3ece4c78	0.40292716
183	0x3e097b54	0.13425952
184	0x3e8a340f	0.26992843
185	0x3e255432	0.16145399
186	0x3e62fe0d	0.22167225
187	0x3de5530f	0.11197483
188	0x3ebc3ec0	0.36766624
189	0xbdb8fbae	-0.09032379
190	0x3d94e505	0.072702445
191	0x3cadc199	0.021210479
192	0xbe27ff54	-0.16405994
193	0xbd2846b7	-0.041083064
194	0x3e0006bb	0.12502567
195	0x3de5f601	0.11228562
196	0x3e46edd1	0.19426657
197	0x3e12d78d	0.14340039
198	0x3b3430b9	0.0027494861
199	0x3deb8899	0.11500663
200	0x3e08e807	0.13369761
201	0x3d9e89bf	0.07741117
202	0xbd45c3cf	-0.04828244
203	0x3da2ae00	0.07943344
204	0xbe81d489	-0.25357464
205	0xbe310590	-0.17287278
206	0xbd3ccdee	-0.046094827
207	0xbe03acd5	-0.12858899
208	0x3c2e4c63	0.010638329
209	0xbb30efec	-0.0026998473
210	0xbe4f9ade	-0.20273921
211	0xbe2d0214	-0.16895324
212	0xbd3f5fc1	-0.046722177
213	0xbd987406	-0.07444005
214	0x3e3cf962	0.18454507
215	0xbd29343f	-0.04130959
216	0xbdedfa1e	-0.11619972
217	0xbd97031a	-0.073736385
218	0xbdf932ca	-0.1216789
219	0x3e471663	0.19442134
220	0x3e504c72	0.20341662
221	0xbd01359f	-0.031545278
222	0xbe040fbc	-0.12896627
223	0xbd835698	-0.06413001
224	0x3e18d5d2	0.14925316
225	0xbe0d07e3	-0.1377254
226	0xbbbcb988	-0.0057594217
227	0x3d9d8221	0.07690836
228	0x3ddf0e80	0.108914375
229	0xbe99aefd	-0.30016318
230	0x3e0724ba	0.13197604
231	0x3d9c8d69	0.07644159
232	0x3e18109c	0.14850086
233	0x3d5f005e	0.05444371
234	0x3e432138	0.1905564
235	0xbce0c024	-0.02743537
236	0xbe7d6ad3	-0.24747781
237	0xbd95648f	-0.07294571
238	0xbd9eb27a	-0.077488855
239	0x3ec52727	0.38506433
240	0xbcba90fd	-0.022774214
241	0x3d7938be	0.06084513
242	0xbe2bd052	-0.16778687
243	0xbe8f5898	-0.2799728
244	0xbd26e0c3	-0.040741693
245	0x3d4bf9f8	0.049798936
246	0xbe2a8b57	-0.16654716
247	0x3dd5e7d1	0.10444606
248	0xbe73e3b0	-0.23817325
249	0x3de53bcc	0.11193046
250	0xbd98c9f7	-0.07460397
251	0xbdbcfd4a	-0.092279986
252	0xbdf3277d	-0.11872766
253	0xbe6ed6e0	-0.23324156
254	0xbe74f57a	-0.23921767
255	0x3e645b2d	0.22300406

conv2.bias f4 [80]
0	0x3de27cdd	0.11058972
1	0xbb654372	-0.0034982827
2	0xbc125512	-0.008931415
3	0xba8a7af6	-0.001056521
4	0xbd39bc53	-0.045345616
5	0xbb80e805	-0.003933909
6	0x3dd4a874	0.103836924
7	0x3d2b90b3	0.041886043
8	0x3d79ed7f	0.06101751
9	0xbe02fd7a	-0.12792006
10	0x3e0107a2	0.12600568
11	0x3c5a9ece	0.013343526
12	0xbd5270bb	-0.05137704
13	0xbcb7738d	-0.022393966
14	0xbca212e9	-0.019784408
15	0xbd550b86	-0.052012943
16	0xbe03efce	-0.12884447
17	0xbdb5a49d	-0.08869288
18	0xbe701c40	-0.23448277
19	0x3db9f3c8	0.09079701
20	0x3d97b066	0.07406692
21	0x3d96a7ac	0.073561996
22	0xbbc4cc93	-0.0060058325
23	0xbe16893f	-0.14700793
24	0x3d208d57	0.039197292
25	0xbc964b3f	-0.018346427
26	0x3bbe55b0	0.0058085546
27	0x3d74cee5	0.059767623
28	0xbd54705e	-0.051864974
29	0xbcbdd6e1	-0.023173751
30	0x3cd17187	0.02556683
31	0xbe563e02	-0.20922092
32	0xbda849ff	-0.08217239
33	0xbc5f95f0	-0.013646588
34	0xbe346368	-0.17616045
35	0xbda4bb89	-0.08043582
36	0x3dd617ff	0.10453796
37	0x3d76bd9d	0.060239423
38	0x3e15d298	0.14631116
39	0xbca4ac0f	-0.020101575
40	0x3cd6df28	0.026229456
41	0x3c11b398	0.008892916
42	0x3cb39fae	0.021926727
43	0xbdf24b85	-0.118308105
44	0x3d9ca375	0.076483645
45	0x3d0122c2	0.03152729
46	0xbc565fce	-0.013084365
47	0x3ca6ed6d	0.020376885
48	0xbd4ad8ac	-0.04952304
49	0xbe54e68c	-0.20791072
50	0xbb8887ad	-0.0041665644
51	0x3d2d1a37	0.04226133
52	0xbd0bfe31	-0.034177963
53	0x3d2a4ea7	0.041578915
54	0x3dcbe054	0.099548966
55	0x3c3ea8e8	0.01163695
56	0xbc2112c6	-0.009831136
57	0x3d1f9718	0.038962454
58	0x3e29948d	0.16560574
59	0x3e74d265	0.23908384
60	0xbdb05ade	-0.086110815
61	0xbc8d8860	-0.017276943
62	0x3cd881b5	0.026429037
63	0x3d3ce11a	0.04611311
64	0xbda9a669	-0.08283693
65	0x3c19c847	0.009386129
66	0x3b9956d8	0.004679542
67	0xbbe3fdc6	-0.0069577424
68	0x3e256ec1	0.1615553
69	0x3d55c102	0.05218602
70	0xbd733e38	-0.05938551
71	0x3d25af4c	0.04045038
72	0x3dfa7954	0.12230173
73	0x3d4db2db	0.050219398
74	0xbd1848db	-0.037178855
75	0xbe13657d	-0.14394183
76	0xbe326943	-0.17422967
77	0x3a89b932	0.0010507463
78	0x3e145ffb	0.14489739
79	0xbc0dd6dc	-0.0086571835

conv3.weight f4 [80, 80, 3]
0	0x3d3f3083	0.046677124
1	0xbdc6093f	-0.09669732
2	0xbd3e2a18	-0.046426862
3	0xbcb57d74	-0.022154547
4	0xbdb26ef4	-0.08712569
5	0xbc986861	-0.01860446
6	0xbd96389a	-0.07335015
7	0xbd368d59	-0.044568393
8	0xbcd6459b	-0.026156237
9	0xbcde26ca	-0.027118105
10	0x3c8af8ea	0.016964395
11	0xbd34cf45	-0.04414298
12	0xbcce27b9	-0.025165426
13	0xbb96e7ce	-0.00460527
14	0xbd25fffd	-0.040527333
15	0x3c8fc3bb	0.017549386
16	0x3c14b828	0.009077109
17	0xbd929db8	-0.07158989
18	0xbbe83601	-0.007086516
19	0xbd085022	-0.033279546
20	0x3ca13c20	0.01968199
21	0xbd47a8ff	-0.04874515
22	0xbb59124a	-0.0033122473
23	0xbd86a22a	-0.06573899
24	0xbd116eb4	-0.035505965
25	0xbd9f5e10	-0.07781613
26	0xbd8f0f30	-0.06985319
27	0xbd4a2016	-0.049347006
28	0x3d277eec	0.040892527
29	0x3d3c3241	0.045946363
30	0xbca62c2d	-0.020284737
31	0xbd1d256f	-0.038365778
32	0xbb717e92	-0.0036849123
33	0x3c1561df	0.009117573
34	0x3cb57d11	0.022154363
35	0x3dbedcb6	0.09319441
36	0xbd578cb6	-0.052624427
37	0xbda76fc0	-0.081756115
38	0xbde4b074	-0.11166468
39	0xbc8c056e	-0.017092433
40	0xbd4ce191	-0.050019804
41	0xbc9a7b57	-0.018857641
42	0x3d21ca45	0.03949954
43	0x3cd5943f	0.026071666
44	0x3c8b2eaa	0.016990025
45	0x3c11053a	0.008851344
46	0xbd72043b	-0.059086066
47	0x3cb0185c	0.02149599
48	0xbdc10732	-0.094252005
49	0x3d8f32c5	0.069921054
50	0x3c3d2cf5	0.011546363
51	0x3d09baea	0.03362552
52	0xbd51aee7	-0.05119219
53	0xbd94fe46	-0.07275061
54	0xbd13681b	-0.035987955
55	0xbd1a0579	-0.037602875
56	0xbcb54ed8	-0.022132322
57	0xbd5ebbe9	-0.054378424
58	0xbcaa7a95	-0.020810405
59	0xbbb1e12a	-0.005428453
60	0xbd17d380	-0.037066936
61	0xbd1eeacb	-0.038798135
62	0x3cae3af1	0.02126834
63	0xbd1b429c	-0.03790532
64	0xbd476170	-0.048676908
65	0x3cf46dc7	0.029837502
66	0x3ca00861	0.019535245
67	0xbd0a0ba7	-0.03370252
68	0x3c2fd4ea	0.010731915
69	0x3d23df7e	0.04000806
70	0x3c9c2857	0.019062204
71	0xbce41f31	-0.027846904
72	0xbd3a565d	-0.04549252
73	0x3c6aee78	0.014339082
74	0x3c0605a7	0.008180059
75	0xbdb0f44d	-0.08640347
76	0xbd4be6a2	-0.049780495
77	0x3c894587	0.016756786
78	0xbd3a8bde	-0.045543544
79	0xbd090c88	-0.033459216
80	0xbd980afe	-0.074239716
81	0xbd522c12	-0.05131156
82	0xbdb95cd6	-0.0905091
83	0x3bd452c9	0.0064795953
84	0xbd7ec136	-0.06219598
85	0x3c113df0	0.008864865
86	0x3c25560a	0.010091314
87	0x3cabf131	0.020989032
88	0xbbd4dd73	-0.0064961254
89	0x3d1252a5	0.035723347
90	0xbda884cc	-0.08228454
91	0xbd199424	-0.037494794
92	0xbc078a36	-0.008272698
93	0x3d4985be	0.049199812
94	0xbd0a471f	-0.033759233
95	0xbc946cb2	-0.018118236
96	0x3bd850f3	0.006601447
97	0x39a6f784	0.000318464
98	0x3cd663c0	0.026170611
99	0xbcca55e2	-0.024699155
100	0xbcb3cd40	-0.021948457
101	0xbd1dae47	-0.038496282
102	0x3d88ed2c	0.06685862
103	0x3c7c8aad	0.015413922
104	0xbcb082ae	-0.021546688
105	0x3d3319fd	0.043725956
106	0xbc7cc2f1	-0.015427337
107	0x3c8bc75b	0.017062834
108	0xbbc52721	-0.0060166274
109	0xbca43f6f	-0.020049779
110	0xbd8c502f	-0.06851231
111	0xbda17da7	-0.078852944
112	0x3c621fb1	0.013801501
113	0xbc1fe205	-0.009758477
114	0xbdd6cb0a	-0.104879454
115	0xbc4e3ffb	-0.012588496
116	0xbbe7b121	-0.007070676
117	0xbc75bca7	-0.0149985915
118	0xbc95a2b0	-0.018266052
119	0xbd96dd4c	-0.07366428
120	0xbb9db504	-0.0048128385
121	0x3c40cb84	0.011767272
122	0xbd6f00b7	-0.05835029
123	0x3c235dce	0.009971095
124	0xbd473d81	-0.04864264
125	0xbdb92314	-0.09039894
126	0x3d9d1afd	0.07671163
127	0x3d0e9a13	0.034814905
128	0xbd9ab7d1	-0.075545914
129	0x3c8669c7	0.01640786
130	0xbdc57b21	-0.096426256
131	0x3c883b8b	0.016629955
132	0xb89d4297	-7.498747e-05
133	0x3ca13ac5	0.019681344
134	0xbc18d20e	-0.009327425
135	0x3c8822cb	0.016618153
136	0xbd3cd106	-0.046097778
137	0xbc1b9d6e	-0.009497983
138	0x3c1af536	0.009457877
139	0x3c97d690	0.018534929
140	0xbda528e9	-0.080644436
141	0x3b88201b	0.004154218
142	0x3d2c7643	0.04210497
143	0xbd12f0d1	-0.03587419
144	0x3daa385f	0.08311533
145	0xbd9a8832	-0.075455084
146	0x3bb25cfb	0.005443213
147	0xbd8d495c	-0.06898758
148	0xbca30bd6	-0.019903105
149	0x3cdf3b40	0.027249932
150	0x3c8b4448	0.017000332
151	0x3c47ecca	0.012202451
152	0x3ce5fcfb	0.028074732
153	0x3d12c9a4	0.03583683
154	0xbda42fc6	-0.080169246
155	0xbdbdcfe0	-0.09268165
156	0xbd0ee41b	-0.034885507
157	0xbdc2b711	-0.095075734
158	0xbd45ce26	-0.0482923
159	0xbd313094	-0.04325922
160	0xbc44150d	-0.0119679095
161	0xbcdd0be3	-0.026983207
162	0xbd67a721	-0.05655587
163	0xbd2a6c1e	-0.041607015
164	0x3c61a886	0.013773089
165	0x3c7a1a55	0.015265067
166	0xbddd37b1	-0.10801638
167	0xbd90c33d	-0.07068489
168	0xbcdd98b0	-0.027050346
169	0xbd9a3ba6	-0.07530908
170	0x3c02c04c	0.007980417
171	0xbd31f596	-0.0434471
172	0x3c3bf00c	0.011470806
173	0xbd3becc0	-0.04588008
174	0xbc722fb4	-0.014781881
175	0xbcaed3a1	-0.021341147
176	0xbcc8941f	-0.024484692
177	0xbd8dabf2	-0.069175616
178	0xbd056a81	-0.032572273
179	0xbcbea3cb	-0.023271462
180	0xbc957efa	-0.018249024
181	0x3cc51888	0.024059549
182	0xbc2a74a1	-0.010403783
183	0xbd200f71	-0.039077226
184	0x3bd4e7b6	0.0064973487
185	0x3c7d2ce9	0.015452602
186	0x3ccd291f	0.025044022
187	0xbd9835c7	-0.07432132
188	0xbc878ee0	-0.01654762
189	0x3d074087	0.033020522
190	0xbd14f15d	-0.036362994
191	0xbd0589bd	-0.03260206
192	0x3c783e9a	0.015151644
193	0xbc93814f	-0.018005995
194	0xbd9ee9b1	-0.07759417
195	0xbca96ae2	-0.020680849
196	0xbcc7fd84	-0.024412878
197	0x3cd349b7	0.025791986
198	0xbda7b916	-0.08189599
199	0xbd9694cb	-0.07352599
200	0xbcd7a95d	-0.026325876
201	0x3c1c439d	0.009537605
202	0x3a44941c	0.00074988767
203	0x3c88e580	0.016710997
204	0xbdccd0c4	-0.100007564
205	0xbd484bda	-0.048900463
206	0xbd639458	-0.055561393
207	0x3c128e41	0.008945049
208	0xbcf978a1	-0.030453028
209	0xbdb67aa3	-0.0891011
210	0xbd1772e8	-0.036974818
211	0x3b96f305	0.004606607
212	0xbd9a4ab9	-0.075337835
213	0xbd0f0a8c	-0.034922168
214	0xbd902992	-0.07039179
215	0x3d439bf3	0.047756147
216	0xbd83b98f	-0.06431877
217	0x3ba70a43	0.005097659
218	0xbac5064d	-0.0015031785
219	0xbd9067ec	-0.070510715
220	0xbd9e6089	-0.07733256
221	0xbd45fc7e	-0.0483365
222	0x3c082a51	0.00831087
223	0xbdaa58ff	-0.08317756
224	0x3d687528	0.056752354
225	0xbd966f13	-0.073454045
226	0xbdb68bd4	-0.08913389
227	0xbd42527b	-0.04744194
228	0x3cd37dbc	0.02581679
229	0x3d3efbc8	0.046626836
230	0x3cea8bdf	0.028631149
231	0xbdc24841	-0.094864376
232	0xbd3872b2	-0.045031257
233	0xbb816fe3	-0.0039501055
234	0xbd2fd9b3	-0.042932224
235	0xbc311593	-0.010808366
236	0xbca04da5	-0.019568274
237	0xbd5b2201	-0.053499226
238	0xbbaa384d	-0.0051947
239	0xbd7f05c0	-0.062261343
240	0x3e33174e	0.17489359
241	0x3e252e22	0.1613088
242	0x3dc6b62c	0.09702715
243	0xbe05bfba	-0.13061419
244	0xbe872648	-0.26396394
245	0x3a5bbf1d	0.0008382665
246	0x3e8ef789	0.2792323
247	0x3d636353	0.055514645
248	0xbe624fa8	-0.22100699
249	0x3e1e54cf	0.1546204
250	0xbed31865	-0.4122955
251	0xbea8856b	-0.3291429
252	0x3f20f1d4	0.62869
253	0xb90f0743	-0.00013640248
254	0xbdb4e627	-0.088329606
255	0xbddf9b56	-0.109183

conv3.bias f4 [80]
0	0x3c3c2669	0.011483767
1	0x3addc7cf	0.001692051
2	0x3dbe79c9	0.093005724
3	0xbd0df9fc	-0.03466223
4	0x3d82cd7c	0.06386849
5	0x3c0334bb	0.008008177
6	0xbd8a9751	-0.067671426
7	0x3c483f4c	0.012222122
8	0xbd19c60c	-0.037542388
9	0xbcb9111f	-0.022591172
10	0xbe29fd48	-0.16600525
11	0x3cfb1fbb	0.030654779
12	0x3dcef0fa	0.101045564
13	0x3d086521	0.03329957
14	0x3c793279	0.0152097875
15	0x3c496e7b	0.012294407
16	0xbdcc637d	-0.099799134
17	0x3d00ab56	0.0314134
18	0x3d1035d4	0.035207585
19	0x3b16b8bf	0.00229983
20	0x3d79013c	0.060792193
21	0x3e11ed96	0.14250788
22	0x3d85e11b	0.06537076
23	0xbd7e165d	-0.062033046
24	0x3d0ed48a	0.03487066
25	0xbdffbaaf	-0.12486779
26	0x3c80b451	0.015710982
27	0x3d4a042c	0.049320385
28	0xbd1741ce	-0.03692799
29	0x3b0825bc	0.0020774445
30	0x3d593dd4	0.05303748
31	0xbda9b04d	-0.0828558
32	0xbe0d516b	-0.1380059
33	0x3c66bc35	0.014082958
34	0x3ba3e3aa	0.005001505
35	0x3dc093c8	0.09403187
36	0xbdb788c5	-0.089616336
37	0x3c9ae8f9	0.018909918
38	0xbc0cfe96	-0.00860562
39	0x3c3b1128	0.011417665
40	0x3d878651	0.06617416
41	0xbdb63da6	-0.08898477
42	0xbd1cff3e	-0.038329355
43	0xbd37f14d	-0.044907857
44	0xbe0ebe18	-0.13939703
45	0xbc8467e9	-0.01616283
46	0x3db3ea45	0.08784918
47	0xbbf3061f	-0.007416501
48	0xbd0f7ddf	-0.03503215
49	0xbb6de2be	-0.003629848
50	0x3d5449ee	0.051828317
51	0xbbb72953	-0.005589643
52	0xbe42f885	-0.19040115
53	0xbc21d007	-0.009876258
54	0x3a70c907	0.0009185229
55	0x3cbd8d69	0.023138719
56	0x3da2dbc4	0.07952073
57	0xbe2d79b4	-0.16940957
58	0xbe197826	-0.14987239
59	0xbe200dec	-0.15630311
60	0xbca2d05b	-0.019874742
61	0xbd569d63	-0.05239619
62	0x3daf5f14	0.085630566
63	0xbdce8b7b	-0.100851975
64	0x3d97297f	0.073809616
65	0xbb3b41c2	-0.002857313
66	0x3da47633	0.08030357
67	0x3c86853e	0.016420957
68	0xbda92ec7	-0.08260875
69	0x3d92d9ce	0.07170449
70	0x3e0e36fe	0.13888165
71	0xbdf7a79d	-0.120925166
72	0xbd929b5c	-0.07158539
73	0x3bd98d5d	0.0066391663
74	0x3d7be3da	0.061496593
75	0x3cc50594	0.024050511
76	0xbcad8067	-0.021179391
77	0xbd7d167c	-0.06178902
78	0x3ca92156	0.020645779
79	0xbdf4c71b	-0.11952039

conv4.weight f4 [100, 80, 3]
0	0xbd53d8bb	-0.051720362
1	0xbc623175	-0.013805737
2	0xbd70c601	-0.05878258
3	0xbd2f945a	-0.04286609
4	0xbcd0212f	-0.025406448
5	0xbd572771	-0.05252785
6	0x3ceb9c85	0.028761158
7	0xbd9faafd	-0.07796285
8	0x3a5b21fe	0.0008359252
9	0x3d15e4ee	0.036595277
10	0x3d13581b	0.035972696
11	0xbc95ea7b	-0.018300286
12	0xbd48b77c	-0.04900311
13	0xbcb5e117	-0.022202058
14	0xbd9e1fdf	-0.07720923
15	0x3cf6e25b	0.030137232
16	0xbdafb7b4	-0.085799605
17	0xbe14ac73	-0.14518909
18	0xbd81d865	-0.06340102
19	0xbd3a44cb	-0.045475762
20	0xbd6fa834	-0.05851002
21	0xbd8235f1	-0.06357945
22	0xbd7c70f2	-0.06163115
23	0xbd5db718	-0.05412969
24	0xbd962030	-0.07330358
25	0x3b5aed6a	0.003340567
26	0x3cd2cbef	0.025732009
27	0xbce629e0	-0.02809614
28	0xbd8f7de2	-0.07006432
29	0xbe0c6131	-0.1370895
30	0x39cceeea	0.00039087917
31	0x3b84c424	0.004051702
32	0xbbd150ca	-0.0063878046
33	0xbcaeba09	-0.021328943
34	0xbdd7371a	-0.10508557
35	0xbddbe76f	-0.10737502
36	0xbd1f5457	-0.038898792
37	0xbce99de2	-0.028517667
38	0xbdb678ad	-0.08909736
39	0xbd817384	-0.06320861
40	0xbd9c14f5	-0.07621185
41	0xbde07669	-0.10960085
42	0xbc9dface	-0.019284632
43	0xbd7a9846	-0.061180376
44	0xbd393d57	-0.045224514
45	0x3c0206c6	0.007936185
46	0x3cab265a	0.02089231
47	0x3c2f0ff0	0.010684952
48	0x3d2f40b7	0.042786326
49	0xbcd3f1a3	-0.025872057
50	0xbd9f67d9	-0.07783479
51	0x3cd5c3b8	0.026094303
52	0xbd0debe2	-0.034648784
53	0x3c041fb1	0.008064196
54	0xbc2ca4e7	-0.010537363
55	0x3c1954d9	0.009358608
56	0x3c730527	0.014832771
57	0xbd21a8ad	-0.039467502
58	0x3cac2d37	0.021017654
59	0xbd5caee3	-0.053877722
60	0xbd47b8c3	-0.048760187
61	0xbdb1a48e	-0.086739644
62	0xbdacb790	-0.08433449
63	0xbd26230d	-0.04056077
64	0x3cf0d9f5	0.029400805
65	0xbcd46f63	-0.02593202
66	0x399141ce	0.00027705583
67	0xbdae9954	-0.08525339
68	0xbd0567ff	-0.03256988
69	0xbccb2ff5	-0.024803141
70	0xbd87c1d1	-0.066287644
71	0xbd72e152	-0.059296913
72	0xbc2e7a55	-0.010649283
73	0xbbae8492	-0.005325862
74	0xbd1016a8	-0.035177857
75	0xbc412df8	-0.011790745
76	0x3c4a3695	0.012342115
77	0xbd3c9e18	-0.046049207
78	0xbd8d6512	-0.06904043
79	0xbd160994	-0.03663023
80	0xbda56b24	-0.08077076
81	0xbd7faa4e	-0.062418275
82	0xbcd4e62e	-0.025988664
83	0x3c9f1c9c	0.019422822
84	0xbd29605f	-0.041351672
85	0x3c3d4969	0.011553147
86	0x3d2b7505	0.041859645
87	0xbcb794cc	-0.022409819
88	0xbd859cf4	-0.06524077
89	0xbd1b17ba	-0.037864424
90	0xbc8963b2	-0.016771171
91	0xbd548e9f	-0.051893827
92	0xbccddb77	-0.025129063
93	0xbb972ac9	-0.0046132547
94	0xbc5525a8	-0.013009466
95	0xba286989	-0.00064244174
96	0xbbe31f29	-0.006931205
97	0xbd524f4b	-0.05134515
98	0xbd59f58e	-0.053212695
99	0x3d3179b2	0.04332895
100	0xbd695138	-0.05696222
101	0xbcf90d09	-0.030401723
102	0x3d577ed5	0.05261119
103	0x3ca25713	0.01981691
104	0xbbd2941a	-0.0064263465
105	0xbd3eaf9c	-0.046554193
106	0xbe2e753b	-0.17036907
107	0xbd52ea95	-0.051493246
108	0x3d5360a1	0.051605824
109	0xbd503aad	-0.050837208
110	0xbd635bf6	-0.055507623
111	0xbd7a5bc8	-0.061122686
112	0x3ce994e0	0.028513372
113	0xbd79bf31	-0.06097335
114	0xbaa85989	-0.0012844066
115	0x3d1cfa79	0.038324807
116	0xbd2fb4c1	-0.04289699
117	0x3cef655b	0.029223135
118	0xbe070151	-0.13184096
119	0xbce6d123	-0.028175896
120	0xbd4e571f	-0.050376054
121	0xbdb4a686	-0.08820824
122	0xbd690c50	-0.056896508
123	0x3cca9191	0.024727615
124	0x3d7b1546	0.061299585
125	0xbd040930	-0.032235324
126	0xbcc35b1b	-0.023847153
127	0x3d469902	0.048485763
128	0xbce7b30c	-0.028283618
129	0x3d247d7f	0.040158745
130	0xbd2361d4	-0.039888218
131	0x3cfa8e48	0.030585423
132	0xbd24fde0	-0.040281177
133	0x3d823dea	0.063594654
134	0xbbf75a81	-0.0075486307
135	0xbd11f15d	-0.035630573
136	0x3c80740c	0.015680335
137	0xbdb62682	-0.088940635
138	0xbd7f36b5	-0.062308032
139	0xbdc0fecf	-0.09423601
140	0xbd66bacb	-0.056330483
141	0x3afcd455	0.0019289354
142	0xbb66e833	-0.0035233616
143	0xbd2ed263	-0.04268111
144	0xbd8a71a4	-0.067599565
145	0xbd668037	-0.05627462
146	0xbd4c2fb8	-0.049850196
147	0x3c6f3062	0.014598938
148	0xbe15f47e	-0.14644048
149	0xbd2b7cd5	-0.041867096
150	0xbbdf2068	-0.006809283
151	0xbcfa94ae	-0.030588474
152	0xbc53a777	-0.012918345
153	0x3c8505c5	0.016238103
154	0x3d02ef6e	0.03196662
155	0x3cff3e48	0.031157628
156	0x3cffd8d4	0.031231321
157	0x3d3b5aaa	0.04574076
158	0xbbac92fe	-0.0052665463
159	0xbc93c9b9	-0.018040525
160	0xbd764c4a	-0.06013135
161	0xbd4ba6b0	-0.049719512
162	0xbb6da304	-0.0036260495
163	0xbc4fceaf	-0.012683555
164	0x3cec334a	0.02883305
165	0xba22ec6a	-0.0006215038
166	0xbcbbd6c4	-0.022929557
167	0xbd9c4bdd	-0.07631657
168	0x3cdf5c78	0.027265772
169	0xbd3fae15	-0.046796877
170	0xbdca383a	-0.098740056
171	0xbd79ac94	-0.0609556
172	0x3d049284	0.03236629
173	0x3d6522ee	0.055941515
174	0xbb0e8c27	-0.0021751018
175	0xbd4d8aaf	-0.050181087
176	0x3c8fd926	0.0175596
177	0xbb490e03	-0.0030678518
178	0x3d5dc3ce	0.054141812
179	0x3d39e4d7	0.045384254
180	0x3d2d5058	0.04231295
181	0x3ce72d06	0.028219711
182	0xbdb6f0a7	-0.089326195
183	0x3d4371b5	0.04771586
184	0x3cbeb0cb	0.02327766
185	0x3d6d6b8d	0.057963897
186	0xbc3b673d	-0.011438188
187	0xbd4e3915	-0.050347406
188	0xbd6551d0	-0.055986226
189	0x3a5dfe17	0.00084683433
190	0xbb870dbc	-0.0041215103
191	0x3cd98904	0.026554592
192	0xbc232849	-0.009958335
193	0xbca7be7b	-0.02047657
194	0xbe146f0f	-0.1449549
195	0x3ce6e885	0.028187046
196	0xbc1c2e9d	-0.009532598
197	0x3d7df756	0.062003456
198	0xbd5b9f8d	-0.053618956
199	0xbccc8bf1	-0.024969073
200	0x3c9d1a63	0.019177621
201	0xbd872880	-0.06599522
202	0xbd946b4c	-0.07247028
203	0xbd655e7e	-0.055998318
204	0x3c814fa6	0.01578505
205	0xbc305ca0	-0.010764271
206	0xbd50f819	-0.051017854
207	0x3ce86e1a	0.028372813
208	0xbcb91e0d	-0.022597337
209	0x3d4765e9	0.048681173
210	0xbd5e0443	-0.054203283
211	0xbb977472	-0.0046220357
212	0xbd555538	-0.052083224
213	0xbd79012a	-0.060792126
214	0xbd2a428b	-0.041567367
215	0x3c9ba5b3	0.01899991
216	0xbbb1c496	-0.005425046
217	0x3cb1330f	0.021630792
218	0xbd69dd28	-0.057095677
219	0x3d32299d	0.043496717
220	0xbc26bf8a	-0.010177502
221	0x3caaec1c	0.020864539
222	0xbc2c8abe	-0.010531126
223	0xbd401a91	-0.046900336
224	0xbd4f8c7a	-0.05067108
225	0xbc94aecf	-0.018149761
226	0x3c82193a	0.01588117
227	0xbc367553	-0.011136371
228	0x3d675b3c	0.056483492
229	0xbd0ae074	-0.03390546
230	0xbcbfa45c	-0.023393802
231	0x3d1d2c71	0.03837246
232	0x3c269f09	0.010169753
233	0xbd147f6c	-0.03625433
234	0x3d1e6130	0.038666904
235	0x3d37fbf9	0.044918034
236	0x3d0f8cf3	0.03504653
237	0x3c8c8462	0.017152969
238	0x3b626a12	0.0034548086
239	0x3d166727	0.036719467
240	0xbd4f3fb5	-0.050597865
241	0x3b950aa1	0.004548386
242	0xbd09f459	-0.033680294
243	0x3e14fa5f	0.14548634
244	0x3e5d2d75	0.21599372
245	0xbe9152a9	-0.28383377
246	0xbe62c4b1	-0.22145344
247	0x3da98502	0.08277322
248	0x3d1e65fb	0.038671475
249	0xbe70be90	-0.23510194
250	0x3cfea9ff	0.03108692
251	0xbdaa21bc	-0.083072156
252	0x3e2bd5e3	0.1678081
253	0x3d8fba2d	0.07017932
254	0x3e67feac	0.22655743
255	0xbdcdc2c4	-0.10046914

conv4.bias f4 [100]
0	0xbd8fe1ad	-0.07025466
1	0xbcf9be72	-0.03048632
2	0xbd04c19f	-0.032411214
3	0xbdc27e3e	-0.09496735
4	0xbdaf8e1e	-0.085720286
5	0xbdef7896	-0.11692922
6	0xbe33c5c4	-0.1755591
7	0x3ca41364	0.020028777
8	0xbd88cf52	-0.06680168
9	0xba1c185c	-0.00059545576
10	0x3cf60655	0.030032316
11	0x3d140294	0.03613527
12	0xbe3e6305	-0.1859246
13	0xbdefe19e	-0.11712955
14	0xbc78196f	-0.015142783
15	0xbd869675	-0.06571666
16	0xbe156769	-0.14590229
17	0xbd19901b	-0.037490945
18	0xbdf7d1b9	-0.12100548
19	0xbd55ede2	-0.052228816
20	0x3c03a939	0.008035951
21	0xbe4e78a2	-0.20163205
22	0xbde4ed42	-0.11178066
23	0xbc8fb14e	-0.0175406
24	0x3e1c1153	0.15240984
25	0x3ca89d17	0.020582719
26	0xbd169192	-0.03675992
27	0xbc228fe8	-0.009922005
28	0x3c06c0fc	0.008224722
29	0x3be4ce29	0.006982584
30	0x3c6ac36e	0.014328821
31	0x3b014cba	0.001972957
32	0xbd2b1137	-0.041764464
33	0x3adf8484	0.0017053043
34	0xbe544ced	-0.2073247
35	0xbc8c002f	-0.017089931
36	0xbd88d4ea	-0.06681235
37	0xbdca6b90	-0.09883797
38	0xbdb8b96f	-0.09019744
39	0x3ddcee03	0.10787585
40	0x3c222a6d	0.00989781
41	0xbd538634	-0.051641658
42	0x3dfc0624	0.12305859
43	0xbe5ead7f	-0.21745871
44	0xbb227d99	-0.00247941
45	0xbe0ff8d3	-0.14059763
46	0xbe7ee89f	-0.24893425
47	0x3d0166a6	0.031592034
48	0xbd5ebc84	-0.054379
49	0xbdb867b0	-0.09004152
50	0xb9dcbb45	-0.00042101197
51	0x3c0a553c	0.008443173
52	0xbe1bcd52	-0.15215042
53	0xbd17d055	-0.037063915
54	0xbddc7b7a	-0.10765739
55	0xbd10c28c	-0.035341784
56	0xbc37fdc5	-0.011229937
57	0xbdfed245	-0.124424495
58	0xbb74e423	-0.0037367425
59	0x3a69095c	0.0008889639
60	0xbe1f49af	-0.15555452
61	0xbd861b84	-0.06548217
62	0xbe2c78c2	-0.1684294
63	0xbd2d6f46	-0.042342447
64	0xbdc498b0	-0.09599435
65	0xbd66fe85	-0.056395072
66	0x3ccc2692	0.024920736
67	0xbd9faec6	-0.07797007
68	0xbe4933d3	-0.19648676
69	0xbe3547e2	-0.17703202
70	0xbd39e7d3	-0.0453871
71	0xbdd16858	-0.1022498
72	0xbe835a15	-0.25654665
73	0xbd84e8a0	-0.06489682
74	0x3ccca8cf	0.024982838
75	0x3ce53fd6	0.02798454
76	0xbe1338b5	-0.14377101
77	0xbcae38d6	-0.021267336
78	0xbc875a4f	-0.016522555
79	0xbd5a4827	-0.053291466
80	0xbd86ac03	-0.065757774
81	0x3c074e0f	0.008258357
82	0xbde9bc4d	-0.11412869
83	0xbd420ce3	-0.04737557
84	0x3c9f2014	0.019424476
85	0xbcda7fe6	-0.026672315
86	0x3c0602e2	0.008179398
87	0x3d9b4dac	0.07583174
88	0xbbe01fca	-0.006839727
89	0x3cad81f6	0.021180134
90	0x3c8f3203	0.017479902
91	0xbdfedb35	-0.12444154
92	0xbcdd9553	-0.027048742
93	0xbdb154d2	-0.08658756
94	0xbc95d714	-0.018291034
95	0x3c9614cb	0.018320462
96	0xbd64d578	-0.055867642
97	0x3d68a1f9	0.056795094
98	0xbcff65e1	-0.03117651
99	0xbe6c683e	-0.2308664

fc1.weight f4 [20, 400]
0	0xbd18e535	-0.037327964
1	0xbd0a5e41	-0.033781294
2	0x3c85e577	0.016344769
3	0xba51da67	-0.0008005262
4	0x3da7d714	0.0819532
5	0xbcf8d5fb	-0.030375471
6	0x3db7df6f	0.089781635
7	0x3dbbdf0a	0.09173401
8	0x3bcda88d	0.0062761963
9	0x3c843e40	0.016142964
10	0xbc9734ad	-0.018457735
11	0xbb3db215	-0.0028945256
12	0x3d6eaf45	0.05827262
13	0x3c2d40b9	0.010574513
14	0x3d448463	0.047977816
15	0x3cf756d3	0.030192768
16	0xbcc22b02	-0.023702148
17	0xbe18ac21	-0.14909412
18	0x3d3aa531	0.045567695
19	0x3ce663d5	0.028123775
20	0xbc289173	-0.010288584
21	0xbe73ca76	-0.23807701
22	0x3a846687	0.0010101356
23	0x3d0c735e	0.03428971
24	0x3d93f3a8	0.07224208
25	0x3d82ec5e	0.0639274
26	0x3df4ba22	0.119495645
27	0x3e23b5bc	0.15987295
28	0x3e015cdf	0.12633084
29	0xbe91203c	-0.28344905
30	0xbea53079	-0.32263544
31	0xbeaceeea	-0.33776027
32	0xbcac633d	-0.021043414
33	0xbeb78cc1	-0.35849574
34	0x3e637efa	0.22216406
35	0xbd5b401a	-0.05352793
36	0x3c47b2fd	0.01218867
37	0xbd386bf1	-0.045024816
38	0x3d428252	0.047487564
39	0xbc075131	-0.008259104
40	0x3d1324cd	0.035923768
41	0xbe6567d2	-0.22402886
42	0x3ddd660f	0.10810482
43	0x3be81a7c	0.0070832353
44	0xbd79ebe7	-0.06101599
45	0xbd13596a	-0.035973944
46	0x3eb943fe	0.36184686
47	0x3e9fbaa9	0.31197098
48	0xbdd65a3d	-0.1046643
49	0xbd806cee	-0.06270777
50	0xbe768d3b	-0.24077313
51	0xbd5c244e	-0.05374556
52	0x3daa2720	0.08308244
53	0x3da90886	0.08253579
54	0xbc9b8302	-0.018983368
55	0x3c8cf999	0.017208861
56	0x3dac314f	0.08407842
57	0x3d33aff9	0.043868992
58	0xbdbed0e1	-0.09317184
59	0xbda64859	-0.08119268
60	0xbdd65ccc	-0.10466918
61	0xbcbed4fd	-0.02329492
62	0xbe364a59	-0.17801799
63	0xbda4e248	-0.08050972
64	0xbc899242	-0.016793374
65	0x3c24378e	0.010023011
66	0xbd401c83	-0.04690219
67	0x3a24e0cd	0.00062896014
68	0x3e231935	0.15927584
69	0xbca0d9d4	-0.019635119
70	0x3e49b5de	0.19698283
71	0x3d29c175	0.04144426
72	0xbb9ff514	-0.0048815105
73	0xbe92875d	-0.286189
74	0x3e002065	0.12512358
75	0xbb03daa5	-0.0020119336
76	0xbcdcabf0	-0.026937455
77	0xbdfa2eeb	-0.1221598
78	0xbc017ec5	-0.007903759
79	0xbe848558	-0.25882983
80	0x3db5897a	0.08864112
81	0xbe1f737a	-0.15571395
82	0x3b9f1c66	0.0048556803
83	0xbbb052c1	-0.005380959
84	0xbe015d9c	-0.12633365
85	0xbdcb4c04	-0.09926608
86	0xbe13da18	-0.14438665
87	0xbda00bc7	-0.07814746
88	0xbd8887ad	-0.06666503
89	0x3c92ffe4	0.017944284
90	0x3c8d9a6c	0.017285548
91	0x3d533356	0.05156263
92	0xbcfb5b43	-0.030683165
93	0xbd56262e	-0.052282505
94	0xbdbcbfb9	-0.09216256
95	0xbd279f39	-0.04092333
96	0xbe6513a9	-0.22370781
97	0xbde030d3	-0.109468125
98	0x3dc2cd0e	0.09511767
99	0x3e8b6cc7	0.27231428
100	0xbe705908	-0.23471463
101	0x3dd78560	0.10523486
102	0xbd2d009c	-0.04223691
103	0x3d00630f	0.03134447
104	0x3d97e901	0.07417489
105	0xbb57afec	-0.0032911254
106	0x3d50acff	0.050946232
107	0xbd56cfe3	-0.05244435
108	0xbcc1e8fa	-0.023670662
109	0xbc017872	-0.007902252
110	0xbba69627	-0.0050838175
111	0xbd04afc2	-0.03239418
112	0xbd5b140b	-0.05348591
113	0x3dea1e27	0.11431532
114	0xbdb5ecb8	-0.08883041
115	0xba303b37	-0.0006722691
116	0xbd908aae	-0.07057701
117	0x3d229b02	0.03969861
118	0x3ce6c937	0.028172119
119	0xbaff5300	-0.0019479692
120	0x3b3dfc7d	0.0028989606
121	0x3c34aa00	0.011026859
122	0x3bbd72d7	0.0057815122
123	0xbd51db9e	-0.051234834
124	0xbc1f675a	-0.009729231
125	0xbd6a86e8	-0.057257563
126	0xbd21d3ed	-0.03950875
127	0xbd309413	-0.043109965
128	0x3e583fdd	0.21118112
129	0x3d4bd8aa	0.049767174
130	0x3dea3747	0.114363246
131	0x3de40fbf	0.11135816
132	0x3dfb22ba	0.12262483
133	0xbe9368fc	-0.28791034
134	0xbc9980aa	-0.01873811
135	0xbd937f5a	-0.07202025
136	0xbd721ac1	-0.059107546
137	0x3d1473dc	0.036243305
138	0x3ea308fc	0.31842792
139	0x3db939c9	0.09044225
140	0x3e48af44	0.19598109
141	0x3cd3c35e	0.025849994
142	0x3cfc1b62	0.030774776
143	0x3b32e91a	0.0027299584
144	0x3d2e3523	0.042531144
145	0x3dc4c9c6	0.09608798
146	0xbc5d0afa	-0.013491387
147	0x3d02ea68	0.03196183
148	0xbd9e11b7	-0.077182226
149	0x3bc46040	0.005992919
150	0x3a43fa67	0.00074759725
151	0x3c3e40e7	0.011612154
152	0xbdd2f1d7	-0.103000335
153	0xbe6b64c6	-0.22987661
154	0x3cfba461	0.03071803
155	0x3c93f66c	0.018061839
156	0x3ed633f5	0.41836515
157	0x3e58249d	0.21107717
158	0x3e0e62f3	0.13904934
159	0xbe83ae02	-0.25718695
160	0x3bda8cc5	0.006669613
161	0x3b299b33	0.002587986
162	0xbc8243c0	-0.015901446
163	0x3d3da38a	0.04629854
164	0x3ceb3a2c	0.028714262
165	0xbdc7d209	-0.09756858
166	0x3a834cab	0.0010017356
167	0x3d09d785	0.0336528
168	0xbc01112a	-0.007877627
169	0xbd98dd2e	-0.07464062
170	0x3d8cf4df	0.06882643
171	0x3deaa1d6	0.11456649
172	0xbdd62d0a	-0.10457809
173	0xbe35ef05	-0.1776696
174	0xbe506baf	-0.20353578
175	0xbd435204	-0.047685638
176	0xbdb0b981	-0.08629132
177	0xbd1eb07f	-0.03874254
178	0x3c8d9da0	0.017287076
179	0xbce52d40	-0.027975678
180	0x3ca4bd15	0.020109693
181	0x3e020650	0.1269772
182	0x398d2be9	0.0002692633
183	0x3d8e765a	0.069561675
184	0x3d1a6412	0.03769309
185	0xbd77f272	-0.06053395
186	0x3df33c42	0.11876728
187	0x3f075058	0.5285697
188	0x3c4920c7	0.012275881
189	0xbd12f1ca	-0.03587512
190	0xbce12dea	-0.027487714
191	0x3c58bce0	0.013228625
192	0xbc7674af	-0.015042468
193	0x3c620398	0.013794802
194	0xbd0d9512	-0.034565993
195	0xbc2bcda4	-0.01048604
196	0xbe34a231	-0.17639996
197	0xbe5c3c09	-0.21507277
198	0xbc0b08e8	-0.00848601
199	0xbd6a43b6	-0.05719348
200	0x3d97a365	0.07404212
201	0x3e80e576	0.25175065
202	0xbe08b8c5	-0.13351734
203	0xbdc35a15	-0.09538666
204	0xbd344150	-0.0440076
205	0xbd0dac88	-0.034588367
206	0x3cd27843	0.02569211
207	0xbd2bfb4f	-0.041987713
208	0xbdb2d691	-0.087323315
209	0x3b8b66e4	0.004254209
210	0xbcce7bd0	-0.025205523
211	0x3c772e53	0.015086728
212	0xbb7f629b	-0.0038968686
213	0xbc0a2d60	-0.00843367
214	0x3cd35fa0	0.025802433
215	0x3ce655ca	0.02811708
216	0xbcadbb77	-0.021207554
217	0x3c8ff71e	0.01757389
218	0x3d127fc8	0.035766393
219	0xbcea9da3	-0.02863962
220	0x3dd19f3b	0.10235449
221	0xbd44811c	-0.04797469
222	0x3bb311b9	0.005464759
223	0x3df3d96f	0.119067065
224	0x3d69f154	0.057114914
225	0x3bd8ef21	0.0066203033
226	0x3d30a29e	0.043123834
227	0xbd1b3b72	-0.03789849
228	0xbdc0b7c9	-0.09410054
229	0xbd04b975	-0.032403428
230	0xbc603f18	-0.013686918
231	0x3c9ac759	0.018893884
232	0xbd162a2a	-0.036661305
233	0x3d079197	0.03309783
234	0x3c7ddb9a	0.015494252
235	0xbb1a8484	-0.002357752
236	0x3a700000	0.00091552734
237	0xbca99bd7	-0.020704193
238	0xbc426f58	-0.011867367
239	0x3d2871db	0.041124206
240	0x3d5ac209	0.053407703
241	0x3d359899	0.04433498
242	0xbdb7caff	-0.08974265
243	0xbdb58f8c	-0.0886527
244	0x3bdb5e3b	0.0066945828
245	0x3d8a9382	0.06766416
246	0x3d9201f7	0.07129281
247	0x3c9b123c	0.018929593
248	0xbdcbc05c	-0.09948799
249	0xbd3af126	-0.045640133
250	0xbde0b7bd	-0.10972545
251	0xbe2f1beb	-0.17100494
252	0x3d1a7aa3	0.03771461
253	0x3d3c30fd	0.045945156
254	0x3d1a125f	0.037615176
255	0x3d0c4ac8	0.034251004

fc1.bias f4 [20]
0	0x3c049e1d	0.008094338
1	0xbce40c0b	-0.027837774
2	0xbc86e614	-0.016467132
3	0x3d868d24	0.06569889
4	0xbd337ba0	-0.04381907
5	0x3cb0e2b9	0.021592485
6	0xbd003d34	-0.031308368
7	0xbb8ac41a	-0.004234803
8	0xbd046eb3	-0.032332134
9	0xbccbbf04	-0.024871357
10	0x3ca0c1cd	0.019623661
11	0x3ba624ce	0.0050703054
12	0xbc92790a	-0.017879982
13	0x3b1a01b4	0.002349955
14	0xbcb52d56	-0.022116344
15	0xbe400b34	-0.18754274
16	0xbcf12e77	-0.029441101
17	0xbd1d2714	-0.038367346
18	0xbd8ca8a5	-0.06868104
19	0x3d8ca982	0.068682685

fc2.weight f4 [3, 20]
0	0x3cdfb148	0.027306214
1	0xbd98a6a4	-0.07453659
2	0x39ab96b9	0.0003272796
3	0x3e3ce5ef	0.18447088
4	0x3c4a6566	0.012353277
5	0xbe9a7570	-0.30167723
6	0x3e2a33f2	0.16621378
7	0x3b899594	0.0041987393
8	0x3dfce4f9	0.123483606
9	0xbd5ed5c7	-0.054403093
10	0xbe265419	-0.16243018
11	0x3dbd65f4	0.09247962
12	0xbe08cd61	-0.13359596
13	0x3e41d605	0.18929298
14	0xbd7ea8ad	-0.06217258
15	0xbe3d66e2	-0.18496278
16	0xbc96ab22	-0.01839215
17	0x3cf4b2d2	0.029870424
18	0xbe46f9d6	-0.19431242
19	0xbea618a4	-0.32440674
20	0x3e55a60c	0.20864123
21	0x3e310554	0.17287189
22	0x3c902ae1	0.017598571
23	0xbdce394b	-0.100695215
24	0x3e1fe076	0.15612969
25	0x3e03ced5	0.12871869
26	0x3dae6c3f	0.0851674
27	0xbcad8ff7	-0.021186812
28	0xbdcf8769	-0.10133249
29	0x3d489999	0.048974607
30	0x3daba8e7	0.08381825
31	0xbe530b74	-0.20609838
32	0x3e3414da	0.17586079
33	0x3d0b1165	0.033952136
34	0x3e09f020	0.13470507
35	0xbdcdf20c	-0.100559324
36	0x3d472352	0.04861767
37	0xbdc0c1f1	-0.094119914
38	0xbdc6f678	-0.09714979
39	0x3de271a8	0.110568345
40	0xbd40c602	-0.047063835
41	0x3d91f741	0.07127238
42	0x3e2a2e4a	0.1661922
43	0xbdbd8845	-0.09254507
44	0xbe6bdbc7	-0.23033057
45	0x3e05a3eb	0.13050811
46	0xbe11dec8	-0.1424514
47	0x3e0c88b0	0.13724017
48	0x3e21c8bc	0.1579923
49	0x3d751056	0.059830032
50	0xbe4e2387	-0.2013074
51	0xbe3b7d3e	-0.18309495
52	0xbcb5d94d	-0.022198344
53	0x3e18de94	0.14928657
54	0xbe27de89	-0.16393484
55	0x3e095e7f	0.13414954
56	0x3d4ce59c	0.05002366
57	0x3e1a426e	0.15064403
58	0xbe2b5601	-0.16732027
59	0x3debe4a3	0.11518218

fc2.bias f4 [3]
0	0xbe0a95df	-0.13533734
1	0xbeca410e	-0.39502758
2	0x3e035691	0.12825991
